models/gdn_model.pth (torch_old, 7835 bytes, 6 tensors)

feature_means f4 [20]
00000000: 9a99 9931 0000 0000 cdcc ccb1 6666 e632
00000010: 9a99 1932 0000 0000 cdcc cc30 6666 66b2
00000020: 0000 80b2 6666 66b2 cdcc 4c30 cdcc 4cb2
00000030: cdcc 4c32 0000 4642 0000 803f 0000 0040
00000040: 0000 4040 0000 8040 0000 a040 0000 c040
4.4703485e-09 0.0 -5.9604646e-09 2.682209e-08 8.940697e-09 0.0 1.4901161e-09 -1.3411045e-08
-1.4901161e-08 -1.3411045e-08 7.4505807e-10 -1.1920929e-08 1.1920929e-08 49.5 1.0 2.0
3.0 4.0 5.0 6.0

feature_stds f4 [20]
00000000: 2cf5 503e 430b a43e aa75 b63e 116a c83e
00000010: 1e36 ac3e 577c 963e c609 8e3e 6a4a a33e
00000020: 18b6 b33e db01 853e a544 dc3e b863 ad3e
00000030: 3044 963e 4836 f241 bd37 8635 bd37 8635
00000040: bd37 8635 bd37 8635 bd37 8635 bd37 8635
0.20406026 0.32039842 0.35636646 0.39143422 0.33635038 0.2939174 0.27741832 0.3189271
0.35099864 0.25977978 0.43021122 0.33865142 0.29348898 30.276505 1e-06 1e-06
1e-06 1e-06 1e-06 1e-06

fc1.weight f4 [64, 20]
00000000: 7366 26be ec31 233e ec20 08be b854 693d
00000010: 58df 4fbe 90b5 113d d0aa e83d c26a 29be
00000020: 0495 a23d 0249 4b3e 9cf3 2fbd 08ab 06bd
00000030: 813e d8bd af63 17be 40b9 163b 3a9e 54be
00000040: f0c0 603d a3b6 05be 0044 3b3a 8a46 15be
00000050: 8806 aabd 343a a23d b047 1a3d f0db 4f3d
00000060: 2cf1 2bbe 5599 f1bd d067 403d 884c 3dbe
00000070: 0094 323e 4823 87bc aa63 c3bd c68b bcbd
00000080: 0697 a4bd f12c e3bd 07c4 f2bd 7cd0 41be
00000090: 2a46 4f3e 9c0a 573e 2fe9 5bbe ac24 0dbd
000000a0: e0a8 ccbd a013 20be 6ec8 24be d84f 843c
000000b0: 7d65 4ebe 9d8d f5bd d237 0bbe 4e43 313e
000000c0: 70f2 e3bc 880f 3a3d b0fe 58bd 2005 c93d
000000d0: 8bd0 edbd 1044 8c3c 609f 273e 7411 3cbd
000000e0: 824d 42be 5040 2fbe afd6 33be 00c8 6dbc
000000f0: c648 63be fed1 28be 524e 58be 9f3c 583e
00000100: 6f7b 04bd b802 a73c 706b 4e3b 72c0 9cbc
00000110: 56aa 8cbd ffa9 b83d d29e 43bc 0923 e2bd
00000120: 19fe 343d e149 a93d 0379 15be 5d06 da3d
00000130: ad86 1ebb da46 f2bd fe60 19bd 6645 ebbd
00000140: cb5b c23d 0db1 db3d e360 1dbe 92e5 0dbe
00000150: f2c9 80be e261 e4bc 8b24 703e 723b 413e
00000160: 7e2f 023e 0fb0 693e f0a1 d43d c85e 503d
00000170: 0988 80be 399d 9bbc 06c9 c9bd 2076 2ebe
00000180: 2cd5 063d e4b5 403e 0185 fc3d ab9b 083e
00000190: 59f8 d3bd 5549 02be 5e01 58be 7f11 3fbe
000001a0: 988b 2e3d 934f 043e cbd6 7b3e 6d0f 843e
000001b0: 860b e83d 0b59 a53c a7ba dd3d 8ca3 743e
000001c0: ce90 fdbd c722 043d 6c33 09bc 847f 6f3d
000001d0: a3b6 6cba f5ec adbc 4b41 76bd d90d 823d
000001e0: fc89 0fbd 703d 2c3c 6b1e 37be e6dc 623d
000001f0: 4f7b 8a3c c80a d6bc 0e37 ed3b 8116 473e
00000200: b42e 47be 60ad 1cbc 1418 583e 74d0 fe3d
00000210: 9580 903d 29bf c63d ed9b 90bd a0a7 f13d
00000220: 198f 6ebd 5526 f0bb 8528 243e b4eb 773c
00000230: 57ea 2f3e 1b5c 223e 5282 533e 893b febd
00000240: d211 19bd 845f e0bd bbd0 4bbe af28 4dbe
00000250: 0e6d c7bd 906a b63d e2db 4f3e 5b52 c03d
00000260: be04 b4bd c95b 453e 8a87 00be b0d5 06be
00000270: 963b c83d 3b72 1f3e ffc3 09be 0756 0e3e
00000280: 6b43 ee3d 3502 ce3d 317d 6ebe 684e e5bd
00000290: e817 f53c 715e 15bd b2dd 783e c27f 283e
000002a0: ac68 723e 229a 283e 4480 303e f263 743e
000002b0: 6432 ee3d 64ec d33c 345d 453d 1cbd a5bd
000002c0: 3d2a 91bd 5ff7 353e 05f3 1ebe 4e16 37bd
000002d0: 76e6 433d 17c3 c9bd c18e 4bbe a2b7 a3bd
000002e0: 0a82 80be e12d e3bd b354 50be fd3f 743e
000002f0: 488d 05bd 8821 05be b0d1 c538 a555 bdbd
00000300: 5e17 303e 3b53 45bd 68a2 6f3d 0a60 283c
00000310: 8214 333e cc6c 563e 5107 573e 1824 38be
00000320: 2c55 64be 1809 c4bc f0c1 0d3c 60a5 b13c
00000330: 8069 2cbd c4d4 813d d420 c1bd 50b7 473e
00000340: 02e3 2e3e 30f9 3a3e 004e 8ab9 dc2a 963d
00000350: 7c38 73bd 0024 ea3a 701f d23d 1b2a 41be
00000360: fe82 063e 04f7 6bbd 0809 b23d 0d9f 49be
00000370: 04bd c4bd 607f 583d e891 303d f5b3 1ebe
00000380: a478 3e3e a856 9a3d 48d9 3ebe 80c5 983c
00000390: d8e0 633d 823c 38be 849c 92bd 5e00 b9bd
000003a0: d0a9 50be 8b94 3ebe c772 64be d6d5 d5bd
000003b0: 4484 35bd 40c2 933b 0c7e 563e bcf2 4cbe
000003c0: 1e28 25be b160 973c 4b55 aabb 38f4 083e
000003d0: 2590 63be 3abf f7bd 95f0 6b3e c15f 99bd
000003e0: 83ad 99bd 86f3 653e 9cb6 953c 94be 35bc
000003f0: a29d 4b3d 0cae d03d 23d5 35be c749 503e
-0.16250019 0.15937012 -0.13293809 0.05696556 -0.20300043 0.035573542 0.11360705 -0.16544631
0.07938579 0.19852069 -0.042956933 -0.03287795 -0.10558797 -0.1478412 0.0022998601 -0.20763484
0.0548715 -0.13057952 0.00071436167 -0.1457769 -0.08302027 0.079212576 0.037666023 0.050746858
-0.16791219 -0.11796824 0.046974003 -0.18486226 0.1743927 -0.016496316 -0.09540494 -0.09206347
-0.08036618 -0.11092556 -0.118537955 -0.18927187 0.20241609 0.21000141 -0.21475671 -0.0344588
-0.09993148 -0.15632486 -0.16092083 0.016151354 -0.20155902 -0.11989901 -0.13595513 0.17310831
-0.027825564 0.045424968 -0.052977264 0.09815431 -0.11612042 0.017122298 0.1636939 -0.045915082
-0.1897488 -0.17114377 -0.17562364 -0.014513016 -0.2219573 -0.16486356 -0.21123627 0.21116875
-0.032344278 0.020387039 0.0031497143 -0.019134734 -0.068684265 0.09016799 -0.011939721 -0.11041839
0.04418764 0.082660444 -0.14596944 0.10645745 -0.002418916 -0.1182992 -0.037446015 -0.11487846
0.09490164 0.10727129 -0.1536899 -0.13857105 -0.25154072 -0.027878705 0.2345144 0.18870333
0.1271343 0.22821067 0.103824496 0.05087164 -0.25103787 -0.018995868 -0.09852795 -0.17037249
0.03291814 0.18819386 0.12330056 0.13340633 -0.10350103 -0.12723286 -0.21094272 -0.18659018
0.042613596 0.1292098 0.24593656 0.2579302 0.11330323 0.02018406 0.10826617 0.23890513
-0.12381135 0.03225973 -0.008374076 0.058471218 -0.00090299005 -0.021231154 -0.060120862 0.063502975
-0.0350437 0.010512695 -0.17882697 0.055386446 0.016904501 -0.026128188 0.007239229 0.19442178
-0.1945141 -0.00956282 0.21102935 0.12442103 0.07055775 0.0970443 -0.070609905 0.1179955
-0.058241937 -0.0073287883 0.16031082 0.01513188 0.17179237 0.15855448 0.20655182 -0.12413699
-0.03737051 -0.10955718 -0.19903843 -0.20035051 -0.097375974 0.08907044 0.20298722 0.09390708
-0.08789967 0.19273295 -0.12551704 -0.13167453 0.0977699 0.15570919 -0.13453673 0.13900004
0.11633953 0.10059015 -0.23289944 -0.111965954 0.029918626 -0.03646702 0.2430332 0.16454986
0.23672742 0.16465047 0.1723643 0.23866251 0.11630705 0.025869556 0.04818459 -0.080927104
-0.070881344 0.17770146 -0.15522392 -0.044699006 0.047827207 -0.098516636 -0.19878675 -0.079940096
-0.25099212 -0.11092735 -0.2034481 0.23852535 -0.03260544 -0.13001072 9.432749e-05 -0.09244851
0.17196414 -0.048175078 0.058504492 0.010276804 0.17488292 0.2093994 0.20998885 -0.17982519
-0.22298115 -0.023930117 0.008652195 0.021685302 -0.0420928 0.0633941 -0.094300896 0.19503522
0.17078784 0.1825912 -0.00026379526 0.073323935 -0.05938004 0.0017863512 0.102599025 -0.18863718
0.13135907 -0.05760862 0.08693129 -0.1968958 -0.09606364 0.05285585 0.043107897 -0.15498336
0.18600708 0.075360596 -0.18637574 0.018648863 0.05563435 -0.17991832 -0.07158759 -0.09033273
-0.20377278 -0.18611352 -0.22309409 -0.104411766 -0.04431559 0.0045092404 0.2094652 -0.20014471
-0.16128585 0.018478723 -0.005198156 0.13374412 -0.22222956 -0.120970204 0.23040994 -0.07488967
-0.07503798 0.22456178 0.018275551 -0.011092801 0.049710877 0.10189447 -0.17757086 0.20340644

fc1.bias f4 [64]
00000000: f17b 47be 60ed e63c cf05 5ebe 469b 463e
00000010: 9dd6 763e 955a 2f3e 31b8 70be e22a 07be
00000020: 2c12 433d 49c7 9abd 001b 3c3e 38c7 763d
00000030: a5ea 463e e06c 84b6 7228 28be 0e9c 623d
00000040: b30e c2bd 0bc2 10bd 1452 81bd acb0 50be
00000050: 2270 72be 950e 05be 245c ecbd 3d64 dd3d
00000060: 5f4b 043e f387 cfbd 20fa 3c3e 6660 353e
00000070: e4a8 77bd 2001 0b3e 08b6 643e d9fd 44bc
00000080: 7377 70be 74f0 24be 2f63 a2bb c299 cc3c
00000090: 0bc8 fa3c 8781 3d3e 9f3d 473e 3eef 213e
000000a0: fcbc 3cbe 55a4 2e3e 6817 28bd 50d6 02bd
000000b0: 8865 3d3d e654 30be d42a ea3d 908a 7c3c
000000c0: 45f2 c13c 308b 283e 6731 c63d 5580 2e3e
000000d0: fa1f 673c a8e7 0ebe 5cf9 33be 4a4a b4bd
000000e0: 83a6 9abd bb38 f03d a567 103e 0556 bdbd
000000f0: f0c3 58be ba92 8fbd 71bd cabd 0039 033d
-0.19480874 0.028189361 -0.21681903 0.1939517 0.24105306 0.17124398 -0.23507763 -0.13199952
0.047624752 -0.07557542 0.18369675 0.060248584 0.19425447 -3.9465813e-06 -0.16421679 0.055324607
-0.0947546 -0.035341304 -0.06314483 -0.20379895 -0.23675588 -0.12993844 -0.11541012 0.108101346
0.12919377 -0.10133352 0.1845479 0.17712554 -0.0604638 0.13574648 0.22335064 -0.012023413
-0.23483066 -0.1610735 -0.0049556713 0.024975661 0.030612966 0.18506442 0.194571 0.1581392
-0.18431467 0.17054875 -0.041037947 -0.031942666 0.046239406 -0.17219886 0.1143395 0.015413895
0.023675093 0.16459346 0.096773915 0.17041142 0.014106745 -0.13955557 -0.17575592 -0.08803232
-0.07551291 0.117295705 0.14102037 -0.092449225 -0.21168494 -0.07010408 -0.09899414 0.03203678

fc2.weight f4 [5, 64]
00000000: 6888 f43c 5eee dc3d aed1 d0bd f7da 00bd
00000010: 8d68 0f3e 1531 debd a4a3 a83d 5b18 d73c
00000020: d8c6 1e3c b274 1cbd 6a20 af3d a437 d4bd
00000030: fe6e 513d 7faf 7dbc 0cfb 08bd a029 bcbd
00000040: f08d b93d 39d0 f8bd c56f 15bd 7ece 89bd
00000050: cdcd 71bd e0ee a3bb b595 adbd 2ec6 62bd
00000060: 16bf 153d 64a4 27bc 5a0c bb3c 0ff5 a23d
00000070: f291 96bd 9abe 333c aeed af3d e907 713d
00000080: 27c3 89bd 88d1 d33d 9b79 a83d 2712 b13d
00000090: 5682 f4bd ae83 86bb 899c 54bd dba8 d8bc
000000a0: c9aa cc3d 34ec 873b 9c90 05bc 2a89 d9bd
000000b0: accc 52bd 59db c13d 30a0 ab3d e0e1 083d
000000c0: 508e b53d b0fd 37bd b42f 823b 2fff 83bd
000000d0: 166c 1d3d 48dd 993d b92c 31bd efa3 f2bd
000000e0: b25d 6fbd 1524 b63d bcda a4bd 4506 7d3d
000000f0: 86b2 973d 73c9 3fbd 8a0e c3bd 2d53 d4bc
00000100: f8b7 8b3c 30e1 503d 7042 debc d74d 173d
00000110: 21b0 12be eb8c 04be c0f3 df3b 0ed9 47bc
00000120: a80e d03b 7718 c6bd d8e3 edbc 4880 7f3d
00000130: 130e 95bd 299c c63d 60c0 8a3b 9975 8dbd
00000140: 5afc aabd e2d3 a2bc 8b3b cf3d 1a8d a63d
00000150: cf9f b53b 100c 88bc 06da 34bd e757 79bc
00000160: 9127 54bd 2c9b 5dbc 3680 503d 2671 aebd
00000170: 00fb 20bd e27b f8bd 0414 eb3d 97cf d13d
00000180: 2ed0 4bbd 0c54 eabb b1a5 9f3c ff83 9a3d
00000190: 6062 bf3d 1f66 413d 0f54 a8bc 1692 c4bd
000001a0: 870f 1e3c 5d87 2bbd f83f 8a3c aae8 e6bd
000001b0: 1436 89bd bd68 dabd 6a3f fb3d 86b8 ba3d
000001c0: b905 473d b265 c83d 662b 8abd a9b4 61bb
000001d0: d593 b6bd 6070 c03c a97e 9c3c 44dc d03d
000001e0: 3376 fcbd 130e e0bc ca87 933d d9cb ae3d
000001f0: 6252 d7bd 2716 cbbd dca9 9d3d 566d 25be
00000200: 426c cd3d 9014 9d3d d8eb 49bd f7fd d83d
00000210: 285f f6bd bd80 45bd 3906 9fbc 3a5d c43c
00000220: 9d3b 04be 9509 d4bc e8b1 aebd d81e 85bd
00000230: 9a2a 05be 02fe aabd 1062 94bc 6810 1b3d
00000240: 19dd bf3d 1e97 483c ba2f e8bd 1cfe aebd
00000250: afa0 21bd 80f2 d83d 4bcc 16bc aba5 dfbd
00000260: 0a14 67bd 19d0 12be 7b0b a0bd 4264 2ebd
00000270: 10ac f3bc ed7c d9bc 90df 173c 0928 713d
00000280: e16b 01bd f8ca 0bbe aed4 9b3d 5a0e 8c3d
00000290: 2e4e 563d 7a88 e0bd 7e52 83bb 0c75 a3bc
000002a0: 8a0a 8dbd 7148 bbbb 08bc 00be 547c 593d
000002b0: fa8a cbbd be8e 9dbd a27c c5bd f03c 24bd
000002c0: 4648 553b 90f7 873c 666f c23d de16 aa3d
000002d0: 1dcf 8c3d 881f 6b3d 608d db3d 0697 8c3c
000002e0: eb06 12bd f2ae 7abd 1ac4 97bc 7b96 d9bd
000002f0: 62e6 c3bd 4b60 b03d dede f1bd 66ea 9dbc
00000300: 68b6 2a3d 4cfd a73d 38a5 f0bc 79e7 16bd
00000310: 754f bf3b 084b 8ebd 5bd9 da3b 5ca7 c43d
00000320: dcdb abbd 99fd 83bd 260a ecbd 3001 993d
00000330: d556 aabb a6d4 f83d 02f9 f2bd 58ca c83c
00000340: c7c7 e1bd 2f39 c53c 468f 0bbc 50c7 91bc
00000350: fb29 983d 1441 3ebd 741a 943d 1e50 a5bd
00000360: d77b 76bd bc4c 96bd 0102 24bd e5fa 51bd
00000370: b0bc 1cbc 8b79 c9bd 5cbf 20bd e318 883d
00000380: d677 11bd f130 ccbd 2e44 a23d c68b 623d
00000390: eb57 20bd 0577 a53d b7c8 e9bd b52e d8bd
000003a0: d72f febc 688d 21be 02d1 0c3c 9043 f03d
000003b0: c0d8 833d c05b 3ebd c8a5 823c 006c 68b9
000003c0: 186f 9a3c 70fa e6bd 2723 153d 5e8d 0c3d
000003d0: ec2d ef3c a8ae 05bd e32b 48bd eb4c 24bc
000003e0: d793 b73d 490c e8bd ab77 c1bc 772b 1cbe
000003f0: 5c60 f03d 0f11 833d a46b debd f43f bfbc
0.0298502 0.107876524 -0.10196243 -0.03145882 0.14004727 -0.108492054 0.08234337 0.02625673
0.009690963 -0.038197227 0.08551104 -0.10362175 0.05113124 -0.015483736 -0.033442542 -0.09187627
0.090602756 -0.1214909 -0.036483545 -0.067288384 -0.059034158 -0.0050028414 -0.0847582 -0.05536478
0.036559187 -0.010232065 0.022833038 0.079568975 -0.073520556 0.010970736 0.08590256 0.058845434
-0.067266755 0.10342699 0.082263194 0.086460404 -0.11938922 -0.004105053 -0.051907096 -0.026447704
0.09993512 0.0041480307 -0.008152153 -0.10621865 -0.05146472 0.09465665 0.08380163 0.033418536
0.088650346 -0.04491967 0.003972972 -0.06445157 0.038433157 0.07512909 -0.04325554 -0.11847674
-0.058438964 0.08893601 -0.08049533 0.061773557 0.074070975 -0.046822976 -0.095242575 -0.025918568
0.017055497 0.050996006 -0.02713129 0.03693947 -0.14325 -0.12944381 0.006834477 -0.012197746
0.0063494034 -0.09672635 -0.029039308 0.062378198 -0.07278075 0.09697754 0.0042343587 -0.069071956
-0.083489135 -0.019876424 0.10118779 0.08132382 0.0055427323 -0.016607314 -0.044153236 -0.015218711
-0.051795546 -0.013525765 0.05090352 -0.08517675 -0.039301872 -0.12133004 0.11478427 0.10244673
-0.049759082 -0.0071511324 0.019488188 0.075447075 0.093449354 0.04721653 -0.020547895 -0.09598176
0.009647257 -0.04187714 0.016876206 -0.11274846 -0.06699768 -0.106645085 0.12267955 0.09117226
0.048589442 0.09785022 -0.06746559 -0.0034439957 -0.089149155 0.023491085 0.019103365 0.10198262
-0.12327232 -0.027350461 0.07203634 0.085349746 -0.1051376 -0.099163346 0.07698414 -0.1615499
0.10030414 0.076699376 -0.049297184 0.10595315 -0.12029868 -0.048218478 -0.019412147 0.023970235
-0.12913366 -0.025883475 -0.08530027 -0.065000236 -0.13004532 -0.083492294 -0.018113166 0.037857443
0.09368343 0.01224306 -0.11337228 -0.08544561 -0.03945988 0.10593128 -0.009203981 -0.109202705
-0.056415595 -0.14337195 -0.0781469 -0.042576082 -0.029745132 -0.026548827 0.00926961 0.05887607
-0.031597022 -0.13651645 0.07608925 0.06838675 0.05232065 -0.10963531 -0.0040076366 -0.019953273
-0.06886776 -0.005715423 -0.12571728 0.053097084 -0.09938617 -0.076932415 -0.096429124 -0.040097177
0.00325443 0.01659754 0.09493904 0.08305143 0.06875441 0.057403117 0.107203245 0.017161857
-0.03565113 -0.061201997 -0.018526126 -0.10624405 -0.095654264 0.086121164 -0.11810087 -0.019276809
0.041677862 0.082026094 -0.029375657 -0.036841843 0.0058383294 -0.06947905 0.006678743 0.09602234
-0.08391544 -0.06444854 -0.11525373 0.074709296 -0.0051983395 0.121499345 -0.11863901 0.024510548
-0.11024433 0.024075119 -0.008518046 -0.017795235 0.07429882 -0.046448782 0.07231608 -0.08071922
-0.060176697 -0.07338855 -0.040040974 -0.051264662 -0.009566471 -0.098376356 -0.039244995 0.06645372
-0.035514675 -0.09970272 0.079231605 0.05530908 -0.039146345 0.08079342 -0.114152364 -0.10555784
-0.031028671 -0.15776598 0.008594753 0.117316365 0.06437826 -0.04647422 0.015948191 -0.00022165477
0.018851802 -0.11278236 0.036410477 0.034314506 0.029196702 -0.03263727 -0.04886998 -0.010028104
0.08963745 -0.11330468 -0.023616632 -0.15250956 0.11737129 0.06399738 -0.108603746 -0.023345925

fc2.bias f4 [5]
00000000: 201a 0abc 2ce9 a53d 03eb 44bd 077e 6b3c
00000010: 52f7 e8bd
-0.00842908 0.08101115 -0.048075687 0.014373309 -0.113752976
