models/gdn_model.pth (torch_old, 6247 bytes, 6 tensors)

feature_means f4 [13]
000000 cd cc 8c 32 cd cc 4c b1 9a 99 19 32 cd cc cc b1
       1.6391278e-08 -2.9802323e-09 8.940697e-09 -5.9604646e-09
000010 cd cc 4c b2 cd cc 4c 30 33 33 b3 b2 00 00 00 00
       -1.1920929e-08 7.4505807e-10 -2.0861625e-08 0.0
000020 66 66 86 b2 33 33 93 b2 9a 99 19 b2 9a 99 59 b2
       -1.5646219e-08 -1.7136335e-08 -8.940697e-09 -1.2665987e-08
000030 9a 99 99 b1
       -4.4703485e-09

feature_stds f4 [13]
000000 ac 6a e1 3e b2 a5 6e 3e 7d 15 c0 3e a3 63 8f 3e
       0.44026697 0.23305395 0.37516394 0.28005704
000010 a5 5a 8c 3e 7f 29 9d 3e 30 a9 87 3e 8f 0f b8 3e
       0.27412906 0.30695722 0.26496267 0.3594937
000020 78 fd b7 3e 26 a8 3f 3e 67 55 6f 3e e0 5e 90 3e
       0.3593557 0.18716487 0.23372422 0.28197384
000030 49 de 80 3e
       0.2516959

fc1.weight f4 [64, 13]
000000 9e 75 f5 3d d4 d0 07 be 9b 33 06 be 8a e7 21 bd
       0.11985324 -0.13263255 -0.13105623 -0.039527453
000010 af cc 25 be 39 68 8b 3e 67 c4 8a be 1d 8c c2 bd
       -0.16191362 0.27227953 -0.27102968 -0.09499381
000020 23 a7 86 bd 95 ac 5f 3e 78 f1 a8 bc 03 1a 93 3e
       -0.065748475 0.21843179 -0.020622954 0.28730783
000030 34 d9 73 3e a1 57 87 be 2f ac 66 be b4 d1 16 be
       0.23813325 -0.26434043 -0.2252662 -0.14728433
000040 77 ec 8e be 98 5d 0b 3e 24 1b b4 bc 74 42 a2 3e
       -0.27914783 0.13609922 -0.021985598 0.31691325
000050 28 1c 14 be 13 ce 9c 3d 1b 62 94 3e 53 a7 5f 3b
       -0.14463866 0.07656493 0.289811 0.0034126833
000060 38 7f 16 bd 2b 14 27 be 7a 19 62 be e0 42 37 3d
       -0.03674242 -0.16316287 -0.22080031 0.04474151
000070 c0 9b 4c 3e 80 e3 7c be 64 f5 48 bd 84 cd ff 3d
       0.19981289 -0.2469616 -0.049062148 0.12490371
000080 f8 e2 33 be 88 7a 4c 3e 30 b9 77 3d 0b b0 1c be
       -0.1756705 0.19968617 0.060479343 -0.1530153
000090 48 6b da 3d fd 1b 43 be 62 d5 0a be c3 65 99 be
       0.106649935 -0.19053645 -0.13557962 -0.2996045
0000a0 eb 99 87 3d 03 72 af 3d 47 af 05 3e ae 4d 51 3e
       0.066211544 0.08566668 0.13055144 0.20439789
0000b0 18 79 7c 3c ae f4 eb 3d 13 2b 83 bd f3 57 84 bc
       0.01540973 0.11521278 -0.064047 -0.016155219
0000c0 a5 ae a4 3e aa ad 7c be 33 16 22 be 6c d0 fe bd
       0.32164493 -0.24675623 -0.15828781 -0.12442097
0000d0 62 ce c7 bd e5 ad dd 3d 3f f9 7f 3c 46 9a 1b 3d
       -0.09756161 0.108241834 0.01562339 0.037988923
0000e0 75 29 3a 3e 6d 3e d6 bd f2 e9 80 be ec 93 1f 3e
       0.18179877 -0.104611255 -0.25178486 0.15583771
0000f0 d0 e6 10 3e ea 60 db 3d 7e a5 d0 3d 66 45 ad bc
       0.14150548 0.10711844 0.10187815 -0.021151256
000100 ca 28 48 be 07 05 49 3e 39 45 c4 bd 00 14 36 3b
       -0.1954681 0.19630824 -0.09583516 0.0027782917
000110 67 32 45 be ec 6a 07 be 72 63 98 bd c5 e7 e1 bb
       -0.19257508 -0.13224381 -0.07440843 -0.006894084
000120 ec 46 85 bc 64 e5 3d be b6 8f a3 3d a5 89 2c be
       -0.01626917 -0.18544537 0.07986395 -0.16849382
000130 1d fa 38 be 42 8d a1 3e df 88 7a 3e d1 4f e7 3d
       -0.1806416 0.31553084 0.24466275 0.11294521
000140 94 63 1e 3e 87 96 06 3e a3 47 46 bd 1d a7 27 3d
       0.15467674 0.13143359 -0.04840816 0.040930856
000150 04 28 87 bd df 9d 18 3e 1c a2 a9 bc 7e 29 75 bd
       -0.06599429 0.14903973 -0.020707183 -0.059854023
000160 b0 d6 83 3c 0c 1f 47 3e 78 4e 15 3d d0 fe 07 bd
       0.016093582 0.19445437 0.036451787 -0.033201993
000170 0a 0f 9d bd bc 58 c4 3d 1b aa 83 be 33 85 88 be
       -0.07668884 0.09587237 -0.25715718 -0.26664123
000180 b0 f5 45 be 9d ae cd 3d bf ce 1b 3d a7 11 83 3e
       -0.19332004 0.100430705 0.038038965 0.25599405
000190 a3 82 98 bd 80 ef 8d 3e 62 1e b3 bc 3d 30 13 3e
       -0.07446792 0.27721786 -0.021865074 0.1437387
0001a0 f3 ef 76 bd a2 06 a0 be e1 56 3e be 4c 31 a6 be
       -0.060287427 -0.3125506 -0.18587829 -0.32459486
0001b0 57 ee 01 bd 58 87 aa be 11 ed a5 3e ae 78 21 3d
       -0.03172144 -0.33306384 0.3240743 0.03942173
0001c0 ba 50 3c bd 4a d4 9c 3e 1c 1e 94 3d f8 12 c0 bd
       -0.045975424 0.30630714 0.072323054 -0.09378618
0001d0 7b 8a 4f be c2 8b a0 be 0d d8 6f bd 23 a1 07 be
       -0.2026767 -0.31356627 -0.05855565 -0.13245063
0001e0 d9 b1 38 bd 66 fb b8 bd 6c c3 95 be 1a 61 30 be
       -0.045091484 -0.090323254 -0.29250658 -0.17224541
0001f0 5b bd 9c bd dd fb 91 3e 21 73 a8 be b0 91 55 3e
       -0.07653304 0.2851247 -0.32900336 0.20856357
000200 34 53 1a 3e c2 43 a3 be 64 4d 59 3e 91 63 30 3e
       0.15070802 -0.31887633 0.21220928 0.17225482
000210 c6 02 52 3e 2f bd a6 be 17 88 3e 3e 91 4b 09 be
       0.2050887 -0.3256621 0.18606602 -0.13407733
000220 97 86 be 3c 59 22 ad bd 08 b6 7e 3e 56 6b 22 3e
       0.023257537 -0.08453817 0.24874127 0.15861258
000230 16 c6 96 be 69 9a 1f 3d f4 49 81 be 16 c8 f6 bd
       -0.29448003 0.038965616 -0.25251734 -0.12049882
000240 94 e0 66 3e 91 a1 a2 3e 3f 43 84 be ad a7 37 bd
       0.22546607 0.3176389 -0.25832555 -0.044837642
000250 5d 2e 5b 3e f4 f5 86 3c 45 a9 84 be 4c 8b e1 bd
       0.21404405 0.016474701 -0.25910392 -0.11012897
000260 c1 d3 84 3e 65 1e ef 3d fa 9f e5 bd 70 00 69 3c
       0.25942805 0.11675719 -0.11212154 0.014221296
000270 4a a7 ba 3d 43 95 7c 3d f7 90 92 3e 91 88 ed bd
       0.09113939 0.061665785 0.28626224 -0.115983136
000280 5c 22 30 be 81 1f 6b 3e ab 0a bf 3c 2f 00 4d bd
       -0.17200607 0.22961237 0.023320517 -0.050049003
000290 ca 54 8f be 31 d1 e5 3d a6 d4 86 3e 30 a2 6d 3e
       -0.27994376 0.11221541 0.26334113 0.23206401
0002a0 b6 8a 5a 3d 6c 0b 64 be 81 bd 2d be 7e 6d 01 3e
       0.05335494 -0.22269982 -0.16966821 0.12639424
0002b0 35 53 f1 bc 6a d1 b3 3d ab bc 1d 3e f7 7f 14 3d
       -0.029458622 0.08780177 0.15404002 0.03625485
0002c0 25 07 5c bd 74 c2 5d 3e dd 88 29 3d ad 81 f8 bd
       -0.05371775 0.21656209 0.04139029 -0.12134109
0002d0 02 30 93 bc 5b b7 34 be a5 77 8f bb 51 ef 4a be
       -0.017967228 -0.1764807 -0.0043782764 -0.19817854
0002e0 eb f6 40 3e 9d 45 85 be 78 77 88 be 0c 65 55 bd
       0.18844192 -0.26029673 -0.26653647 -0.05209832
0002f0 e7 21 85 3d 55 3a 2e bd b8 9b 07 be cf 87 a2 3d
       0.06500607 -0.0425361 -0.13242996 0.0793606
000300 0c 22 1c 3e 28 fb 3d bd 6a 02 1c be 77 e5 20 bd
       0.15247363 -0.0463821 -0.15235296 -0.039281335
000310 2c 95 44 be 4f 2b b0 3c bc 8a 5f 3e bf ed 3f 3d
       -0.1919753 0.021505026 0.21830267 0.04685759
000320 52 22 65 3c ac 96 99 3e d2 df 58 3e e9 13 90 3d
       0.013985233 0.29997766 0.2117913 0.070350476
000330 36 9f 4a 3c 9c fb 46 be 7b 60 91 3e c8 32 e4 bd
       0.01236706 -0.19431919 0.2839392 -0.11142498
000340 30 a1 91 3d 05 b9 44 3d b3 3c 37 be b1 6e 5d be
       0.07110822 0.04802801 -0.17894249 -0.21624257
000350 a3 bc 50 bc aa 59 50 3d 66 31 fc 3c 7b 04 b1 ba
       -0.012740287 0.05086676 0.030785274 -0.0013505364
000360 9d 61 0b 3e 55 78 16 be 9f b0 98 bd d9 6b 39 bd
       0.13611455 -0.1469434 -0.07455563 -0.045268867
000370 23 a3 9f be 57 71 77 be d9 3c 9e 3e 74 21 a5 be
       -0.3117915 -0.2416433 0.30905798 -0.32252085
000380 22 b0 bc 3d a3 57 86 3e 95 44 98 3e cc 33 45 3e
       0.09213282 0.26238737 0.29739824 0.1925804
000390 e8 fe 00 bc 81 24 7b be 70 41 5f 3e 6a bc 97 3d
       -0.007873274 -0.24525644 0.21802306 0.07408984
0003a0 39 64 d4 bb e2 f7 17 3e ce 7a 89 3e e5 d7 a7 3e
       -0.006481674 0.14840654 0.26851505 0.32781902
0003b0 fc cf 85 be 16 e9 4e be d6 69 62 bd 81 44 28 3e
       -0.26135242 -0.20206103 -0.055276714 0.16432382
0003c0 35 9a af bd 4a a4 a9 3e b2 e4 82 3b a5 e2 38 3c
       -0.085743345 0.33133155 0.0039945478 0.011284505
0003d0 9c d1 5d 3e 50 89 1c be 33 85 cd 3d 64 c9 01 be
       0.21661991 -0.15286756 0.10035171 -0.1267448
0003e0 26 0e f7 3d 75 24 91 be 8f cd 77 3e 24 94 8a be
       0.120632455 -0.28348127 0.24199508 -0.27066147
0003f0 c4 10 dd bd 8d d9 71 3e 7b 9b 15 3c 5b ac 75 3e
       -0.107942134 0.23618145 0.009131308 0.2399153

fc1.bias f4 [64]
000000 0b 63 54 3e da 4d 94 3c 4e 13 55 be dc 75 77 3e
       0.20740907 0.018103529 -0.20808145 0.24166054
000010 23 05 dd 3c eb 3c 41 3e 7d 2a 53 be 85 43 9a bd
       0.026979988 0.18870895 -0.20621677 -0.075324096
000020 4f da 84 3d 1b fd 04 be c1 36 d3 bd 7c 35 20 3e
       0.064869516 -0.12987177 -0.10313178 0.15645403
000030 34 52 3a 3e 96 e8 7e 3e 91 48 d0 bd d4 23 e3 3b
       0.1819542 0.24893412 -0.10170091 0.0069317613
000040 77 28 8b 3e 9f df 27 3c 7e 44 f6 bd 69 ad 6a be
       0.2717931 0.0102461865 -0.120247826 -0.22917713
000050 38 71 29 be 81 6c e7 bc b5 cc 6a 3e e3 fe 1a be
       -0.16547096 -0.02824998 0.22929652 -0.15136294
000060 66 89 4a 3e e6 d9 01 bd 29 aa 11 3e d0 39 fa bd
       0.19778976 -0.031701945 0.14225067 -0.12218058
000070 2c 00 99 3e 83 d7 1e 3d aa 04 80 3d c4 f8 85 be
       0.29882944 0.038779747 0.062508896 -0.26166356
000080 d6 da 61 bc 5a 58 9f bd 64 92 f1 bc e2 d9 a1 3d
       -0.013785085 -0.077805236 -0.02948875 0.07902886
000090 d7 1f 59 be d8 19 86 3d df d3 a5 3d e0 5c 33 3e
       -0.21203552 0.06547898 0.08097052 0.17515898
0000a0 e0 2c 15 3e c1 aa 82 be 3c b0 15 bc 4e 17 7e 3e
       0.145679 -0.255209 -0.009136256 0.24813578
0000b0 bc 7a 8a be 87 cb 13 3e b8 a9 3a 3d ce 06 88 be
       -0.27046764 0.14433108 0.045572013 -0.26567692
0000c0 b8 0f e5 bd 26 c9 c7 3d d4 b5 5b bd 84 96 73 be
       -0.11184639 0.09755163 -0.0536402 -0.23787886
0000d0 2b 5b 83 3e 2e 14 60 bd 3a d5 64 bd 1f 8b 86 be
       0.25655493 -0.054706745 -0.05586741 -0.26278016
0000e0 38 35 88 be 0e ed 53 be 56 2e 85 3d 97 ef 47 be
       -0.26603103 -0.20695898 0.065029785 -0.1952499
0000f0 6e 8b 54 bd 77 ee 2c be 5f 90 f9 3d 63 70 55 3e
       -0.051890783 -0.16887842 0.1218574 0.20843653

fc2.weight f4 [6, 64]
000000 26 6d 4a 3a 67 23 16 be e0 6d 93 bb 76 b0 b2 bd
       0.0007721953 -0.14661942 -0.004499182 -0.087250635
000010 74 f9 68 3d 5e b3 85 3c 38 fd 97 3c 4d 57 9f bb
       0.056878522 0.01632088 0.018553361 -0.004862702
000020 63 e5 2f be 47 e2 86 bd 06 3b c9 bd 41 42 b2 bc
       -0.17177348 -0.06586128 -0.09825711 -0.021760108
000030 b3 0b 29 3d 4c bc e4 bc 9c dc 9a 3d 60 cc 2d be
       0.041270923 -0.027921818 0.07561609 -0.16972494
000040 1f 7d d9 3c 78 b0 0c be 81 bf 01 be 5f 31 6a bd
       0.02654892 -0.13739192 -0.12670709 -0.05717599
000050 fd 8d 49 3d 7f cc 03 be d6 46 73 3b 52 8b 19 bb
       0.049207676 -0.12870978 0.003712108 -0.0023428989
000060 b6 a3 17 be f2 92 a8 bc ac 99 39 3c 30 04 a5 3d
       -0.14808545 -0.020577881 0.011328142 0.08057439
000070 e7 37 43 3d 7f a6 15 3d a6 fa f1 bc 8c 63 d2 3d
       0.047660735 0.036535736 -0.029538464 0.10272893
000080 8f 49 14 bd 17 0d c8 3c ea 58 e6 bd f7 fa 94 3d
       -0.036202963 0.024420304 -0.11247428 0.0727443
000090 15 a7 ae 3d 0b 2a 5c bd fb 70 2c be f9 61 b9 bd
       0.08527962 -0.053751033 -0.16839974 -0.0905189
0000a0 6c 38 f3 3b 7d 9f 16 bd e0 cc d8 bc 92 c0 26 be
       0.0074224975 -0.036773194 -0.02646488 -0.16284397
0000b0 54 5c b6 3d 14 49 68 3c 3c 98 2f 3d c0 35 fc bb
       0.08904329 0.014177579 0.04286979 -0.007696837
0000c0 f4 5b 2b 3b 94 0c 49 3c fc 30 1d be c9 e7 9e 3d
       0.0026147338 0.012271065 -0.15350717 0.07759053
0000d0 a8 6d 05 bd c1 50 70 3d ae 9e 41 3d 31 ba cc bc
       -0.03257528 0.058670763 0.04727047 -0.024991127
0000e0 14 54 cf bd 57 5a dd bd dd 08 a0 3d 8c 11 e3 3b
       -0.101234585 -0.108082466 0.078141905 0.006929582
0000f0 6e 1a 5d bd 6f 60 c3 3b e5 d7 a1 bd ed bf d0 3c
       -0.053980283 0.0059624235 -0.07902507 0.025482142
000100 26 5c 21 bc e4 f8 0d be 84 53 3c bd 8d eb 11 be
       -0.00984863 -0.13864475 -0.045978084 -0.14250012
000110 d4 f0 af bd bb e4 06 3b 9c 39 94 bc 16 51 4d bd
       -0.08590856 0.0020583111 -0.018093877 -0.050126158
000120 97 18 08 be b9 01 21 be 07 6b 2b be 0e 2f 2b bd
       -0.1329063 -0.15723313 -0.16740046 -0.04179292
000130 ae 50 17 bd 1c c2 94 bd c5 2e bf 3d 4d 9c e8 bd
       -0.036942177 -0.07263586 0.093350925 -0.11357937
000140 63 ff eb bd b2 c4 94 bc e8 09 13 be b8 a6 f6 bd
       -0.115233205 -0.018160198 -0.14359248 -0.12043518
000150 9c c6 04 bd eb b7 04 be 24 77 82 3d 82 c2 5c 3d
       -0.03241597 -0.12960784 0.063703805 0.053896435
000160 3d 9e 22 be c3 b9 bc bd 89 0b 41 bd e8 62 6a 3d
       -0.15880676 -0.09215119 -0.04713014 0.05722323
000170 c8 67 40 39 5c 06 1b be de fd a6 bd c0 7c ab bc
       0.00018349208 -0.15139145 -0.0815389 -0.020933509
000180 f5 6b 0a be 7e 0d 67 bb 91 74 20 3d d3 26 0b 3c
       -0.13517745 -0.0035255845 0.039173666 0.008493143
000190 89 a0 ae 3d 2c d8 00 3d bb e6 de bd e4 43 22 be
       0.085267134 0.031456158 -0.10883852 -0.1584621
0001a0 7d 42 89 bd 13 1f af 3c 29 20 b4 bd 25 86 0c 3d
       -0.06702135 0.021377122 -0.087951966 0.034307618
0001b0 ce 1e ee bd fe 3a 0f bd 1b e0 0c be f0 dd 03 3d
       -0.11626969 -0.03496837 -0.13757364 0.032194078
0001c0 1f d1 bf bd d4 34 05 be 02 1a 75 bd af 6e b6 3d
       -0.093660586 -0.13008434 -0.059839256 0.0890783
0001d0 b0 ca e3 bd 20 fe 1c be d7 6b 4a bd 66 46 2c 3b
       -0.11122644 -0.15331316 -0.04941925 0.0026287078
0001e0 c4 82 12 bd 73 35 ae bd 2a 30 82 3c 17 59 53 bc
       -0.03576924 -0.085062884 0.015892107 -0.012899659
0001f0 0a 82 26 be 5a 75 90 bb 7d 3a 8c 3d 7a 61 1b bc
       -0.16260543 -0.0044085206 0.06847093 -0.009483689
000200 85 73 03 3d 65 89 1e be bc b2 e3 3d 77 42 81 bd
       0.03209259 -0.154821 0.11118075 -0.06311505
000210 67 88 8b 3d f0 24 58 3d 84 2e 65 3d 7b 08 18 be
       0.06813126 0.0527696 0.055952564 -0.14846985
000220 60 ac db 3c 54 16 25 be c8 3f a3 bd a7 ff 3e 3d
       0.026815593 -0.16121799 -0.0797115 0.046630528
000230 67 53 92 bd e2 a0 83 bc e6 4f 73 bd e4 b5 1b be
       -0.07144814 -0.016067926 -0.05940237 -0.15206105
000240 cc dc 04 be 27 e0 aa bd 54 aa 65 bc b9 2e 4f 3c
       -0.12974852 -0.08343535 -0.01401766 0.012645417
000250 02 c4 fa bd bf a2 c3 bd bb 17 b0 bd 74 fc da bc
       -0.12244417 -0.09552526 -0.08598276 -0.026731707
000260 b9 4a 27 be 6a 3e 89 3d 20 23 89 bd e7 5a 2e 3d
       -0.16337098 0.06701358 -0.06696153 0.04256716
000270 66 83 6f bd 3c cd 00 be d4 5b ff bc 4e 79 ae bd
       -0.05847492 -0.1257829 -0.031171717 -0.08519231
000280 b4 03 90 bd 2c 1f 87 3d 64 e8 03 be b3 d6 0c be
       -0.07031956 0.065977424 -0.12881619 -0.13753776
000290 41 1d e4 bd ea 19 b6 bd 0e c2 75 3d 65 e5 07 be
       -0.11138392 -0.088916615 0.059999518 -0.13271101
0002a0 0d 50 26 be 72 5a 0c 3d fd 2e 61 bd 37 6d d3 bc
       -0.16241474 0.034265943 -0.054976452 -0.025808914
0002b0 00 6e 14 bd fa 8b 2b bc 88 7e 39 3d 70 41 d2 bc
       -0.036237717 -0.010470385 0.045286685 -0.025665969
0002c0 41 1e e6 bb 68 b3 0f be 63 7e 27 be c3 18 c9 bc
       -0.0070226495 -0.14033282 -0.16356806 -0.02454794
0002d0 34 ec ac bd 90 15 f7 3c 98 b9 90 bd 22 bc fe bc
       -0.0844349 0.030161649 -0.07066649 -0.031095568
0002e0 94 92 a2 bd 53 58 22 be 26 fc 32 bc df 1f d2 bc
       -0.07938114 -0.15854006 -0.010924375 -0.025649963
0002f0 03 c6 d7 bd 7b 6a 8c 3d 3b a3 d6 3c 86 5e 1b bb
       -0.105358146 0.06856247 0.026200881 -0.0023707463
000300 ac ff ad bb f7 95 90 bd 10 12 73 3d 77 ba 1b be
       -0.0053100195 -0.070598535 0.059343398 -0.1520785
000310 cb 3d 6e 3d 03 03 8f 3c 07 92 89 bc db 20 06 be
       0.0581644 0.01745749 -0.016793264 -0.13098471
000320 1a 7d dc 3c 2d 23 38 bd f1 81 03 be 3e 9a d6 bd
       0.026915122 -0.04495542 -0.12842537 -0.10478638
000330 28 6f 20 3c cc 69 e9 bc aa b8 b5 bd 9a 01 17 be
       0.009792127 -0.02849283 -0.088731125 -0.14746705
000340 39 54 05 3d 57 a8 64 3b df e4 e3 bd f1 4e 84 3d
       0.032551024 0.0034890377 -0.11127638 0.064603694
000350 cd 1f fb bd b2 9f 68 3d 13 8d f9 bd ca 6b 00 be
       -0.12261925 0.056792922 -0.12185111 -0.12541118
000360 f4 1d f3 bc 11 05 21 be ad cc dc 3b b3 94 9d bd
       -0.029677369 -0.15724589 0.0067382664 -0.07694378
000370 51 b5 2f be cc f0 53 bd d1 44 c6 3c 30 fe 6e 3d
       -0.1715901 -0.051743314 0.024202736 0.05834788
000380 0f a5 59 bd ac f1 1f be 3e af 91 3b 2c e7 5a 3d
       -0.053135928 -0.15619534 0.0044459393 0.05344312
000390 a2 b6 23 3d c9 f5 29 be 54 ef 71 3d ae a4 89 3d
       0.039969094 -0.16597666 0.05906613 0.06720863
0003a0 1f 07 8a ba 2e 74 d1 3d 83 20 9c bd a2 73 12 be
       -0.0010530687 0.10227238 -0.076233886 -0.14301923
0003b0 78 13 b3 bd 5d a1 87 3d 41 87 0e bc 50 d3 20 bd
       -0.08743948 0.066225745 -0.008699239 -0.039264023
0003c0 91 d0 ff bc 4e 8f ba bc 0f 3c 1f be 75 dc 31 3d
       -0.031227382 -0.022773411 -0.15550254 0.043423135
0003d0 d8 4b 62 bd c2 73 b2 3c b2 3e 01 be 1a 07 02 bd
       -0.05524811 0.021783713 -0.12621573 -0.031745054
0003e0 c0 2d 70 3c 4c f0 08 be ab b6 86 3d 2a 7e 9e bb
       0.014659345 -0.13372916 0.0657781 -0.0048368173
0003f0 97 61 2b be 21 bf 00 be 3b 1e 1a bc 21 75 25 be
       -0.16736446 -0.1257291 -0.009406622 -0.16157962

fc2.bias f4 [6]
000000 cf 6b 23 bd 0a 07 b7 bd 68 27 8e bd da cb 11 be
       -0.039897736 -0.089368895 -0.0694111 -0.1423792
000010 d0 5a 25 bd c4 8c 8b bd
       -0.04036981 -0.06813958
