models/gdn_model.pth (torch_old, 6247 bytes, 6 tensors)

feature_means f4 [13]
00000000: cdcc cc30 0000 0000 cdcc ccb1 cdcc cc31
00000010: cdcc 4c31 0000 e0b1 0000 0000 cdcc 0cb2
00000020: cdcc ccb1 cdcc cc31 cdcc ccb1 3333 33b2
00000030: cdcc cc30
1.4901161e-09 0.0 -5.9604646e-09 5.9604646e-09 2.9802323e-09 -6.519258e-09 0.0 -8.195639e-09
-5.9604646e-09 5.9604646e-09 -5.9604646e-09 -1.0430813e-08 1.4901161e-09

feature_stds f4 [13]
00000000: 34ff b53e 97fe a23e ca7b 983e dcb6 ac3e
00000010: a463 853e 6a8d 973e c57d c53e 93b9 883e
00000020: 6c68 b23e ac2e 823e 2771 d43e e6a2 a63e
00000030: c835 a83e
0.35546267 0.31834862 0.29781944 0.3373326 0.26052582 0.29600078 0.38572517 0.26704082
0.34845293 0.25426233 0.41492578 0.32546157 0.32853532

fc1.weight f4 [64, 13]
00000000: cfa4 613d 2155 a83e e6f4 7b3c 2008 d0bd
00000010: 8b9c 25bc f0a2 35be cd8f a0bd 9528 7bbd
00000020: 5e76 4abd 3d32 9cbe c74c 3e3e 9612 9c3e
00000030: 3fed dfbd cc03 73bd a90b 73be 0daf 30be
00000040: 0a18 ee3c 7d23 4ebd e850 b1bd a20d 0fbe
00000050: 5402 7f3e 3102 97be e5a2 5ebd 58ff 193d
00000060: 57fa 93be cb07 95be cb3d 8fbd 23af 14bd
00000070: 0e01 2f3d 7114 053e d577 9a3d bbca 633b
00000080: f90d 9ebc 408f 31be a0a2 443e 7f8d 19be
00000090: 0ded c83d 3af6 45bc 8ede 473e 8aec 19be
000000a0: 8fd6 8d3d cbec d13d b741 c03c c9cd 31bd
000000b0: 1017 313e 599d 2e3d 42bc 78be efd9 9a3d
000000c0: 0b01 423e 5afa 3bbe 497e bb3d 7a11 813e
000000d0: 60d1 13be 8d80 713c dd89 b03c 7aac 923c
000000e0: be9b 67bd df7e 653d c8cf bb3d 65e4 80be
000000f0: 6a53 013e 4dde 61bc 2ca9 59be 61ba b33c
00000100: b780 97be 8529 873e f0a3 bd3c b1c9 81be
00000110: 28ca 393e 3a5c d1bd 383a 643d 7487 d73d
00000120: e8bb 083d 206b 0cbc b5d1 1fbe 5824 5b3d
00000130: c61f 9dbd ac63 30be 67b5 933e 1235 2c3d
00000140: 9f9d da3d f1dc 943e 751b e43d cb81 6f3e
00000150: e804 93be 45cc 2ebe 4507 54be 4442 2c3d
00000160: ced7 5ebd cfbb a83e fe79 45be 1051 113e
00000170: 059e 60be a38c 69be 361a 213e 7fc2 1cbe
00000180: f542 55be f8c2 e2bd 1f1b f1bd 6919 a6bd
00000190: 18f7 e5bc a24a 9c3c bdb5 60be afe5 233e
000001a0: 91e4 5d3e a26a 86be 5c2d 2c3e ec8f 9f3e
000001b0: 37d1 69bc a8d6 513e 5230 65be cc41 29be
000001c0: c31e 5bbe 19e4 bbbd 0d34 a23e 59f1 9abe
000001d0: b4d9 353e 0f1b 4a3e 6628 8abe 06c5 5e3e
000001e0: 2221 6c3e 8001 6a3e 1842 8c3d 1a04 82be
000001f0: fbf8 5dbe 0ddb f2bc 9e5b b4bc cac1 a8be
00000200: d4bc cabc 673a 0f3e 4d11 edbd 3b92 8ebc
00000210: bf4c 823d 5b10 6c3e 226e 353e 04ad 103e
00000220: 6b5f ab3d 58c9 45be 1c83 9b3c 42be 43be
00000230: f2ca 44be 3267 233e c7e8 5d3e 065a c0bd
00000240: 8279 f83d 621b 8fbd a0fe 0dbe 6463 0dbd
00000250: 8a8a 46be c214 14be b41d 723d 7976 56be
00000260: 560f 86be 79ca 3dbe 0db5 bb3d e302 153b
00000270: ccd0 88be 76e1 563e 4fe8 fcbd 9e31 603e
00000280: a157 fdbd d954 0e3e 74ab 4a3e 8418 143e
00000290: 4a6d 603e e310 1c3d 3e46 e33d 9ca9 97be
000002a0: 1d0e 673e 10b3 c83c 54fb 65bd 48c1 ab3d
000002b0: 60a0 9abd 8404 dfbd f214 4a3e 3525 08be
000002c0: 02a3 7f3e 4838 163e 90a0 b2bc 6001 793d
000002d0: de91 6f3e 8ddf 84be 64f3 fdbd da87 3e3e
000002e0: 938e 93be 37ca 29be 7944 b7bd 350a 8a3d
000002f0: ee07 973d 7186 7d3e 0855 6bbe 45f5 7e3e
00000300: 9591 7b3e a56a 9abb 10c7 c2bd 1181 883e
00000310: b99d f83c 84cd 423e 2136 d6bd cc2a a73e
00000320: 195e 063e 6f92 8f3e d8d6 f23c f01f 80bb
00000330: 511b 80be f5e4 743e e1e1 93be 42de dbbd
00000340: 0612 763e c474 0d3e 675f 89bd da82 4ebd
00000350: 7571 61be 8c1c 8dbd 3d43 a13e ab69 563e
00000360: ea6f 5dbe 6b96 0bbe 4d27 fabd 6b66 8abe
00000370: 1107 953e 8736 a63e 762a 1c3e 100f fbbc
00000380: b305 90be 68df acbc 3f2b 84bd b3d7 65be
00000390: dbdb b5bd b466 a83d b89a 873e b3d2 14be
000003a0: eb49 b3bd 354a 41be 443b b33d 1e33 94bd
000003b0: d8aa 61be 585e 83bd e40b 133e d1dd 08be
000003c0: e0bb 3ebe 72a5 1ebe 9066 46be c393 d4bd
000003d0: 93ba f1bc a264 7b3e f75d 723b 4920 0f3e
000003e0: 9ea2 b8bd 1945 3e3e c41e 47be c140 0dbe
000003f0: 4861 c6bc 4eff aabd 1c14 15bd 259f 593e
0.055088814 0.32877448 0.015378213 -0.101578 -0.0101081235 -0.17737937 -0.07839928 -0.061318
-0.04942929 -0.3050708 0.18583976 0.3048293 -0.10933923 -0.059329793 -0.23734917 -0.17254277
0.029064197 -0.050326813 -0.0865801 -0.13970044 0.24903232 -0.2949386 -0.054354567 0.03759703
-0.28901932 -0.29107508 -0.06994208 -0.036299836 0.042725615 0.12996079 0.075423874 0.0034758288
-0.019293772 -0.17339802 0.19202662 -0.14995383 0.09810839 -0.012082631 0.19518492 -0.15031639
0.069256894 0.10250243 0.023468835 -0.043409143 0.17293954 0.042630527 -0.24290565 0.07561099
0.1894571 -0.1835722 0.09154946 0.25208646 -0.14435339 0.014740122 0.021550113 0.017904509
-0.05654501 0.056029197 0.091704905 -0.2517425 0.12629476 -0.013785911 -0.2125594 0.021939458
-0.2959039 0.26398864 0.02314946 -0.2534919 0.18143523 -0.10222669 0.055719584 0.105238825
0.033382326 -0.008570462 -0.1560734 0.053501457 -0.07672076 -0.17225522 0.28849337 0.0420428
0.10674595 0.29074815 0.111380495 0.23389356 -0.2871468 -0.1707011 -0.20705898 0.042055383
-0.054405026 0.32955787 -0.19284818 0.14191079 -0.2193528 -0.22807555 0.15732655 -0.1530857
-0.20826323 -0.110723436 -0.11772751 -0.08110315 -0.028071925 0.019078556 -0.21944328 0.16005586
0.21669222 -0.2625323 0.16814178 0.3116449 -0.014271072 0.20492041 -0.22381714 -0.16529006
-0.21398453 -0.091743656 0.31680337 -0.3026226 0.17758828 0.19736885 -0.26983947 0.21754846
0.23059514 0.22852135 0.06848544 -0.25393754 -0.2167701 -0.029645467 -0.022016343 -0.3296035
-0.024748243 0.13987122 -0.115755655 -0.017403712 0.063622944 0.23053114 0.17717794 0.141285
0.08367809 -0.19315088 0.018983416 -0.19115546 -0.19218042 0.15957335 0.21670829 -0.093921706
0.12132551 -0.06987645 -0.13866663 -0.034518614 -0.19388786 -0.14461043 0.05911036 -0.20943631
-0.26183575 -0.18534268 0.09165392 0.0022737316 -0.267218 0.20984444 -0.12348997 0.21893927
-0.123702295 0.13899554 0.19791967 0.14462477 0.2191669 0.038102042 0.11097382 -0.2962159
0.22563978 0.024499446 -0.05614789 0.08386475 -0.0755012 -0.10889533 0.19734553 -0.13295443
0.24964526 0.14669907 -0.021805078 0.060792327 0.23395488 -0.25951806 -0.12399939 0.18606511
-0.28819713 -0.16581045 -0.08948607 0.06740228 0.07374559 0.24758317 -0.22981656 0.2489825
0.24567254 -0.00471242 -0.095106244 0.2666097 0.030348646 0.1902371 -0.10459543 0.3264984
0.13121833 0.28041407 0.029643461 -0.0039100572 -0.2502084 0.23915465 -0.2888327 -0.10735752
0.24030313 0.13814074 -0.0670765 -0.05041776 -0.22015937 -0.068902105 0.3149661 0.20938747
-0.21624723 -0.13631599 -0.12214527 -0.27031264 0.29106954 0.32463476 0.15250573 -0.03064683
-0.28129348 -0.021102622 -0.06453561 -0.22445564 -0.08879825 0.08222714 0.2648523 -0.145335
-0.08754333 -0.18875964 0.087515384 -0.07236312 -0.22037828 -0.06414479 0.14360005 -0.13365866
-0.18626356 -0.154928 -0.19375062 -0.10379746 -0.02950791 0.24550107 0.0036982277 0.1397716
-0.09015392 0.18581046 -0.1944533 -0.13794233 -0.02421631 -0.08349477 -0.03639613 0.21252115

fc1.bias f4 [64]
00000000: 931f 153b 32ca e3bd 9dd5 e43d 050c d9bd
00000010: 58d9 4d3a 4d28 26be a717 6dbd 3227 93be
00000020: 8a39 8a3d fa8c 333e 9995 4b3e b047 663e
00000030: a26f 623d 42de 79be 1c0d 223e b16a 953c
00000040: e8ed aabd b675 953e af48 a4bd 5446 863e
00000050: b404 d1bc 50dc 883e bf42 5ebd c7bf dbbd
00000060: 1072 39be 49f8 143e 04cb 553e 4321 a73e
00000070: cfdb 883d dca8 9f3e b912 ab3d 1215 3dbe
00000080: c2be da3d f369 9b3d 9c38 353e 6bba 7a3d
00000090: 7fc0 96bd 0e09 223e d0f4 d4bd 5665 38be
000000a0: d4c4 343d 5dae 38be 6395 b7bc 3a81 323e
000000b0: f1bb d1bd 8d2a 2f3e 60b0 3a3d c7f2 e53d
000000c0: 469f 393e 369b af3d aaa3 363e 47b8 d4bd
000000d0: 4725 f43c c97f fdbd 08f7 83bd eaa0 953e
000000e0: 61b2 a0bd 34e4 313e 0678 df3d ae1d 333e
000000f0: 5c2c c6bc a87a a63d 5ed2 973e f2ec 863e
0.0022754415 -0.1112255 0.11173556 -0.10597996 0.0007852516 -0.16226311 -0.057883885 -0.2874084
0.06749256 0.17534247 0.19881286 0.22488284 0.055282243 -0.24401191 0.15825313 0.018239351
-0.08346158 0.2919137 -0.08021676 0.2622553 -0.025514938 0.26730585 -0.054262873 -0.10729938
-0.18109918 0.14547838 0.20878226 0.32642564 0.0668255 0.31183517 0.083531804 -0.18465069
0.106809154 0.075885676 0.17697376 0.06121294 -0.073609345 0.15823767 -0.10398257 -0.18007407
0.044133022 -0.18035264 -0.0224101 0.17432109 -0.10240925 0.17106076 0.04557836 0.11227947
0.18127164 0.08574526 0.1783587 -0.103867106 0.029802931 -0.12377889 -0.06443602 0.2922433
-0.07846523 0.17372209 0.109115645 0.1749179 -0.024191074 0.081288636 0.29652685 0.2635265

fc2.weight f4 [6, 64]
00000000: b743 a8bd e7cf 93bd fe7c 29bb 6af4 8a3d
00000010: a1c4 92bd 364b e2bd ffc5 22be ff3c 2c3b
00000020: 1c5f 67bb 646e 13be d3a2 9abb 1f32 74bc
00000030: 529a 15be 545b 7d3d 4637 84bd 3835 25be
00000040: 86bd 63bb 8e15 ad3c aeb1 29bd 22c6 c0bd
00000050: 2088 d3bd 8c9a 69bd bb18 f6bd c5c8 dfbb
00000060: 7c87 9d3d 69e9 a9bd c255 8eba 8a80 3fbd
00000070: a8ec 043d f396 c5bd 00ed fbba 14aa 9a3d
00000080: 795f 20be 1858 17bd f3dd 123d 52c1 18be
00000090: 3240 84bd 6f12 8c3d 9577 96ba 997a 8f3d
000000a0: debd 19bd 91c7 983d 0f7b a1bd 7668 de3c
000000b0: 5f6e a6bd ca99 e7bd 6aca 7e3d d4f1 33be
000000c0: 831c 2dbe eb23 8cbc e509 52bd 3e9e e73d
000000d0: 0cb3 863d ddc8 bc3c bfe2 0dbe 0518 c4bd
000000e0: 6805 323d 862a bf3c ee62 8d3c 3efa 713d
000000f0: 2f70 32bc edee 9cbd 6302 32be 8a89 b6bd
00000100: e496 b1bd c0d7 3bbd caf1 ac3a 90f5 efbc
00000110: aa2b 67bb 8ca1 333d cf6a c3bd 5961 793d
00000120: a7d8 0abe f127 46bc 0c0d 25bd 6b0c 963d
00000130: 546d b4bd e0fb d6bc 4e85 81bd 54c7 d5bc
00000140: a2cd 413d d1ca 86bd a2d7 d1bb 98fe eb3b
00000150: 1a8e 8bbc aa7a c2bb fb14 aabd 5ea3 ebbd
00000160: 1824 8abc 8fdd 2abe 499a 06be 97e6 0dbe
00000170: 483f 63b9 5181 c7bd 36f2 b9bd 4848 22be
00000180: 63d0 17be c44b f43c 5da0 17bd c850 e9bd
00000190: b892 e8bd 2bcd 013d 98a3 0dbc c135 01be
000001a0: 372a 1bbe a8ba b2bd 8f87 1abe e144 bcbd
000001b0: 58a6 88bd d090 2e3c 6c01 363d 3629 293c
000001c0: 6a0f 7bbd 99e2 ddbd d481 1ebe eefd 353d
000001d0: ef4f 12be d4ce 12bd 50dd f3bc 105c ed3c
000001e0: 802d febd 8354 f93c e35e febd b0b3 d4bd
000001f0: bbb0 4a3d 84c6 aa3c 7045 28be af1d c1bd
00000200: d632 bfbd 9518 293d 4d39 7bbd a810 0b3c
00000210: 3c25 debd 3ede 8abd 4a2a a5bd ae50 753d
00000220: 28bf 10be cac8 1cbc 80d4 65bd 58b4 863d
00000230: 363f 7b3d 846d 8bbd 0014 97bd 5c37 d63c
00000240: 409e 22be 75fb 0abc a7f6 dabd eac5 cd3b
00000250: 727d b0bd 583e d2bd fd29 16be 3b01 d93c
00000260: 40ff 08bc 1b5a fdbd 5a83 d5bd 441a 943d
00000270: bd6f 17be edf6 76bd 63d5 c9bc 2f59 92bd
00000280: 6ad8 cfbd 16bb 753d df37 aabd 3722 c7bd
00000290: 4ffd 83bd baa9 203d c5bc 02bd a9d2 fd3c
000002a0: 6028 143d bb79 abbd a3fb cabd aba9 c1bd
000002b0: 18f7 e93c aa52 2fbe 9aab 783c 3bdb 9a3c
000002c0: 6bda 27bd a8f4 643d accc 0fbc 35ff aebd
000002d0: 6a50 ce3c 95ba 923d 1222 abbc d8a5 e0bd
000002e0: f3d3 0dbe 51a6 00be ee2a c9bd 9cfa 0bbe
000002f0: d320 a33c 0ec1 efbd a13b 2ebe 4295 873d
00000300: 59ec cfbd 8050 ac3c 847b 903d ce02 9b3d
00000310: 69ff 31bc c2fd a53d b12b bcbd a686 093d
00000320: 1acf 2fbe 5fda 25be 55cd b4bd dc73 7c3d
00000330: f1fb 85bc 02cc b6bd 1123 353d a301 adbc
00000340: 9fa2 11be 56a8 21be 45df 6dbd 15c7 2bbe
00000350: de06 9c3d 2678 30bd a3ed 22be c5ef c23c
00000360: 3cdc 4bbd 7491 d1bd 3996 e6bd 181e 2bbe
00000370: 10bd 41bd 667b b43c 2bc1 1dbe 0b17 d8bd
00000380: e81f 79bd aefc 3f3c 40e5 79bc 9e8d d1bd
00000390: 1796 9ebd 72a5 94bd 2ed6 14be 6864 f53c
000003a0: a85a c4bd e9db d2bc cf10 19be 031a ddbc
000003b0: ad0e a1bd 00d1 77bd 1f6d d53c b320 00be
000003c0: aa65 1b3c 072c 933d df75 01be ae37 d13d
000003d0: b55b 12be a0fb 3dbd f288 bebc 1859 12be
000003e0: d0ee 23bd fd3d 873d ab31 963d 3738 5bba
000003f0: 384d 703d 3090 203d 482a 52bd 17c3 53bd
-0.082160406 -0.072173886 -0.0025861855 0.067848995 -0.0716641 -0.110495016 -0.15895842 0.0026281474
-0.0035304492 -0.1439758 -0.004719117 -0.014904528 -0.1460965 0.061854675 -0.06455855 -0.16133583
-0.0034750416 0.021128442 -0.041429214 -0.09412791 -0.10328698 -0.057032153 -0.12016436 -0.0068293535
0.07691857 -0.082964726 -0.0010859298 -0.046753444 0.032452255 -0.09647932 -0.0019220412 0.07551971
-0.1566142 -0.036949247 0.0358562 -0.14917496 -0.06457557 0.068394534 -0.001147973 0.070058055
-0.037534587 0.07459939 -0.078848 0.02714942 -0.0812652 -0.1130863 0.062204756 -0.17572719
-0.16905408 -0.01710697 -0.051278967 0.11309479 0.06577119 0.023044998 -0.13856028 -0.09574894
0.043462187 0.023335706 0.017259087 0.05907654 -0.010891004 -0.07662759 -0.17383723 -0.08912952
-0.08671358 -0.045860052 0.0013194617 -0.029291898 -0.0035273829 0.043855235 -0.095418565 0.060883854
-0.13559209 -0.012094484 -0.040295646 0.07326587 -0.08809915 -0.02624315 -0.06324254 -0.026096024
0.047315247 -0.06581653 -0.0064038793 0.007201981 -0.017035533 -0.005935033 -0.08304783 -0.11505769
-0.016862914 -0.1668608 -0.13144793 -0.13857494 -0.00021671981 -0.09741462 -0.09079401 -0.15847886
-0.14825587 0.029821284 -0.03701817 -0.11392361 -0.113561094 0.031689804 -0.008644961 -0.12618162
-0.15152822 -0.08727008 -0.15090774 -0.09192825 -0.066723526 0.010654643 0.04443495 0.010324767
-0.061293997 -0.10834236 -0.15479213 0.04443162 -0.14288305 -0.035841778 -0.029768616 0.028974563
-0.12411022 0.030435806 -0.12420442 -0.10385835 0.04948495 0.020846613 -0.16432738 -0.0942949
-0.09335868 0.04128321 -0.061333943 0.008487858 -0.10846946 -0.067806706 -0.080647066 0.059891395
-0.1413542 -0.009569356 -0.05611086 0.065773666 0.06133958 -0.06807998 -0.073768616 0.026149444
-0.1588068 -0.008482804 -0.106915765 0.0062796967 -0.08617677 -0.102657974 -0.14664455 0.026489845
-0.008361638 -0.12370702 -0.10425444 0.07231572 -0.14788719 -0.06029408 -0.024637884 -0.07145917
-0.101486996 0.059992872 -0.08311438 -0.09723323 -0.06444799 0.039224364 -0.031918306 0.03098424
0.036171317 -0.083728276 -0.09911277 -0.0945619 0.028560206 -0.17121378 0.015177632 0.018903365
-0.040979784 0.055897385 -0.008776825 -0.08544771 0.025184829 0.07164494 -0.02089027 -0.10969132
-0.13850383 -0.12563445 -0.09822641 -0.13669819 0.019913113 -0.11706744 -0.17014934 0.066202655
-0.101525016 0.02103448 0.07054809 0.07568894 -0.010864117 0.08105041 -0.09188021 0.033575676
-0.17168847 -0.16196583 -0.088282265 0.06163393 -0.016355487 -0.0892563 0.044222895 -0.021118945
-0.14222191 -0.15786871 -0.058074255 -0.16775163 0.07618497 -0.043083332 -0.15910964 0.023795972
-0.04977058 -0.10232821 -0.112591214 -0.16710699 -0.047299445 0.022031497 -0.15405719 -0.1055127
-0.060821444 0.011717958 -0.015252411 -0.102320895 -0.07743471 -0.07258119 -0.14534828 0.029955104
-0.09587604 -0.025739627 -0.14947818 -0.026989942 -0.07864127 -0.060502052 0.02605301 -0.12512474
0.009484688 0.07186132 -0.1264262 0.10215698 -0.14292796 -0.046382546 -0.02325866 -0.14291799
-0.04002267 0.0660362 0.07333692 -0.00083625637 0.05866739 0.039200008 -0.051309854 -0.051699724

fc2.bias f4 [6]
00000000: a11e 13be aa46 a33c adeb fbbd 8862 cebc
00000010: bde7 14bc 9c1a 26bc
-0.14367153 0.019931156 -0.12300811 -0.025193468 -0.009088454 -0.01013818
