models/gdn_model.pth (torch_old, 7835 bytes, 6 tensors)

feature_means f4 [20]
000000 9a 99 f9 b2 cd cc cc b1 9a 99 19 31 66 66 26 b3
       -2.9057265e-08 -5.9604646e-09 2.2351743e-09 -3.8743018e-08
000010 cd cc 4c 32 66 66 e6 b1 66 66 a6 31 cd cc cc b1
       1.1920929e-08 -6.7055224e-09 4.842877e-09 -5.9604646e-09
000020 cd cc 4c b1 00 00 80 32 9a 99 19 b2 cd cc 4c b2
       -2.9802323e-09 1.4901161e-08 -8.940697e-09 -1.1920929e-08
000030 00 00 00 00 00 00 46 42 00 00 80 3f 00 00 00 40
       0.0 49.5 1.0 2.0
000040 00 00 40 40 00 00 80 40 00 00 a0 40 00 00 c0 40
       3.0 4.0 5.0 6.0

feature_stds f4 [20]
000000 c7 e3 c7 3e 8c 59 94 3e 2f 6c 4c 3e cb 89 d7 3e
       0.39040968 0.2897457 0.19963144 0.42097315
000010 06 98 84 3e 3b 0f 72 3e 8c 46 8f 3e 85 3b b7 3e
       0.25897235 0.23638622 0.2798351 0.35787597
000020 89 57 b3 3e 16 2e 97 3e 0a 15 92 3e 8d 39 93 3e
       0.35027722 0.29527348 0.28531677 0.28754845
000030 dd 0f 9d 3e 48 36 f2 41 bd 37 86 35 bd 37 86 35
       0.30676165 30.276505 1e-06 1e-06
000040 bd 37 86 35 bd 37 86 35 bd 37 86 35 bd 37 86 35
       1e-06 1e-06 1e-06 1e-06

fc1.weight f4 [64, 20]
000000 28 8b 6c 3e d3 89 1e 3e ce 36 ab 3d 2a 1b 53 be
       0.23099959 0.15482263 0.083600625 -0.20615831
000010 57 81 03 3e a0 e8 45 be 04 e3 58 3e 62 38 1d 3e
       0.12842308 -0.1932702 0.2118035 0.1535354
000020 9d 1b d8 bd 6f 3f 58 bd ac 82 4f be e8 df 88 bd
       -0.10552142 -0.05279487 -0.20264691 -0.06683332
000030 39 43 97 3d 97 f0 13 3e 63 ec 12 bd 64 3e 30 be
       0.073858686 0.14447246 -0.035869967 -0.172113
000040 1d 88 12 3e dc 5f 12 be 8a 90 56 3e 2e 5e b8 bd
       0.14309736 -0.1429438 0.20953575 -0.09002338
000050 40 fe fb 3d b1 b1 29 bd a4 44 41 be 23 a3 f5 bd
       0.12304354 -0.041429225 -0.1887384 -0.119940065
000060 58 43 10 3d a6 3f 5a bd fb 32 6a bc fe ba c3 3d
       0.035220474 -0.053283356 -0.014294381 0.0955715
000070 c6 fb 54 3e a2 a5 d2 3c dd 6b 76 3d 1d b2 7e bd
       0.20799169 0.025713746 0.06016146 -0.06218158
000080 b7 2d c4 3c 0c 5f da 3c da 8a 49 be 81 af 20 bd
       0.02394758 0.02665665 -0.19681874 -0.039229874
000090 e1 8f a3 bd ca 59 18 3e 6a 6b a3 bd 96 0c 31 3d
       -0.07986427 0.14878002 -0.07979472 0.043224894
0000a0 52 6a ab bb d6 11 bb 3c ab 9a 1c bc 28 43 0f be
       -0.00523118 0.022835653 -0.00955836 -0.13990462
0000b0 8c 81 6a 3d 33 8f 23 be 00 e0 6e be 79 70 90 3d
       0.05725245 -0.15972595 -0.23327637 0.070527025
0000c0 b7 2e 79 3e 71 15 22 bc fb 4b 80 be 36 07 38 be
       0.24334227 -0.009892807 -0.25057968 -0.17971501
0000d0 c8 39 50 be 1b 80 1f be 27 39 f9 3d 45 a8 56 3e
       -0.20334542 -0.15576212 0.12169104 0.20962627
0000e0 e5 eb 79 3e 70 08 b2 3b a1 f4 4a 3e d3 57 18 be
       0.24406393 0.0054331347 0.19819881 -0.14877252
0000f0 84 82 6a be e3 57 28 3e 4f bb a3 bc fa f4 e5 3d
       -0.2290135 0.16439776 -0.019986777 0.11228366
000100 70 2a 80 3e bf db ae 3d 55 ee 22 be bb 86 38 3e
       0.25032377 0.08538007 -0.15911229 0.18020146
000110 e5 ee 7c 3e 91 9e 9f 3c f4 82 dc bd 4f dc ea 3d
       0.24700506 0.01948479 -0.10767165 0.11467802
000120 42 0c c9 3d b6 3d 02 3e f2 dd aa bd 91 59 f5 3d
       0.09816791 0.12718853 -0.08343114 0.11979974
000130 2a 6f 4d 3e 98 62 0d 3e 18 b6 e0 3d ce f7 07 3e
       0.20061937 0.13807142 0.109722316 0.13278124
000140 c0 a9 f7 bb 90 db de 3d e0 f3 ca 3c a4 f6 99 bd
       -0.0075580776 0.10881722 0.024774492 -0.07517746
000150 68 c4 a7 bd 82 0d 5e 3e 50 b1 9a 3d 10 02 13 bd
       -0.081917584 0.2168484 0.07553351 -0.03589064
000160 05 14 4e be ae 11 4a 3e 88 31 59 3e 38 07 f2 3d
       -0.20124824 0.19733307 0.21210301 0.11817783
000170 76 47 30 3e 40 9f a7 3b c0 e6 8d 3b 20 42 93 bb
       0.1721476 0.0051154196 0.004330486 -0.0044939667
000180 10 e7 21 be 66 d4 24 be a1 e2 d0 bd e8 c4 bc bd
       -0.158108 -0.16096649 -0.10199476 -0.092172444
000190 4d 81 66 3d 58 b5 c4 bd 36 00 5e be 86 68 17 3e
       0.056275655 -0.09604901 -0.21679768 0.14785966
0001a0 bf 68 de bd 4f ea 36 3c df 33 47 be c7 49 73 3e
       -0.108598225 0.011164262 -0.19453381 0.23758613
0001b0 84 52 25 be 6b 88 4e 3e b8 a0 bc bc e3 bd 6b 3e
       -0.16144758 0.20169227 -0.023025855 0.23021655
0001c0 d5 08 3b 3d 5e 17 71 be 00 2a 13 3e e1 78 03 be
       0.04566272 -0.2354407 0.1437149 -0.1283908
0001d0 6c 2c 27 bd b3 c3 35 3e c3 7a 3d 3e 0d ee b3 3d
       -0.04081385 0.17750435 0.18503861 0.08785639
0001e0 b5 fc 9f 3c 79 2d f9 3d 90 d7 3a 3e ec 72 59 3d
       0.01952968 0.12166876 0.18246293 0.053088114
0001f0 aa 06 bc 3c 37 7f 7d be 0d 05 0d 3d f8 95 65 be
       0.022952396 -0.2475556 0.034428645 -0.2242049
000200 45 5a d9 3d 14 ec b1 3d 1a d8 80 be 58 43 64 bc
       0.10612921 0.086876065 -0.25164872 -0.013932072
000210 3a 03 a1 bd e6 70 39 be ad 68 26 3d 67 38 d9 bd
       -0.078619435 -0.18109474 0.04062717 -0.10606461
000220 4d ab 64 3e 31 f4 6f 3e 35 42 20 3e a4 96 aa bc
       0.22330971 0.23432995 0.15650256 -0.020823784
000230 a8 54 c4 bc f8 89 00 3d f3 25 05 be c0 6e 81 3d
       -0.023966148 0.031381577 -0.13002758 0.06319952
000240 ee e3 27 be 60 5c ba 3d 06 2a 3d 3e 8e 49 0b be
       -0.16395542 0.090996504 0.18473062 -0.13602278
000250 50 b7 13 3d 42 3f d9 bd c0 e9 51 3c 7a 9f 1f 3e
       0.036063492 -0.106077686 0.012812078 0.15588179
000260 dc 7e 15 bd 00 e3 3a bc 3e 48 21 be 00 c9 77 bd
       -0.036497936 -0.01140666 -0.15750214 -0.060494423
000270 3c fe 8e 3d f0 81 34 3d c8 75 05 3d 9b d2 f9 bd
       0.06982085 0.04406923 0.032583028 -0.12198373
000280 b8 90 c8 3d 11 fc 08 be d6 97 01 3e 15 70 29 3e
       0.09793228 -0.13377406 0.12655577 0.16546662
000290 ab 04 70 bd d8 2a 59 bd 8a ef f8 bd 58 d3 10 be
       -0.0585982 -0.053019375 -0.121550635 -0.14143121
0002a0 7a f5 ab 3d 94 99 f6 bd 10 70 92 bd 31 34 9a 3d
       0.0839643 -0.120410115 -0.071502805 0.07529486
0002b0 7a 10 52 3e 24 40 1a 3e 1b 87 73 bd 6c 1c 07 3e
       0.20514098 0.1506353 -0.05945502 0.13194436
0002c0 fc b6 37 3e b2 cc 52 3d 57 93 03 be 27 5f 27 be
       0.17940897 0.051464744 -0.12849174 -0.16344891
0002d0 89 a4 04 bd a7 cb 3b 3e 33 00 e8 3d c5 f0 8e bd
       -0.032383475 0.18339406 0.11328163 -0.06979517
0002e0 a4 5a 28 bd 34 71 48 3e 7b 88 72 3d 57 93 6a 3d
       -0.041102067 0.19574434 0.05921219 0.05726942
0002f0 90 cb 29 3d 14 5f a3 3d a4 4e 0f 3e a0 bc ed 3d
       0.041453898 0.07977119 0.13994843 0.11608243
000300 dc 63 44 3e 91 07 13 be 65 b7 2c 3e 6c 4f 4d bd
       0.19178718 -0.14358355 0.16866834 -0.05012457
000310 44 5e 43 3d 1b ad c8 3c 47 93 f9 3d 36 7d 32 3e
       0.04769732 0.024496606 0.12186294 0.17430577
000320 5b 4a b8 bc fe 2d 3a be 57 0d 06 ba 0e 85 20 3e
       -0.022496393 -0.18181607 -0.0005113682 0.15675756
000330 b9 78 2a 3d f2 77 98 bd 10 7d 38 be 33 5d e7 bd
       0.041619036 -0.07444753 -0.18016458 -0.11297073
000340 d7 3e 97 bd 13 ef 40 be 0b f2 d2 3d bc 97 6d bd
       -0.073850326 -0.188412 0.10300072 -0.058006033
000350 76 04 92 3d b4 18 36 3d 52 44 ef bd b8 55 ad bd
       0.07129757 0.044457152 -0.11682953 -0.08463615
000360 69 57 42 3d f1 94 4f 3e cb ff 28 3e 6d 85 32 be
       0.047446642 0.2027166 0.16503827 -0.1743371
000370 14 c7 91 3d 40 3d d0 3c 1b 17 13 3d 7d 6e 54 3e
       0.07118049 0.025419831 0.035910707 0.20745273
000380 4d 76 9e 3d 90 a2 bd bd 07 47 b2 bd d6 21 43 3e
       0.07737408 -0.09259522 -0.08704954 0.19055876
000390 1b 41 45 be 9e c5 49 3e 54 83 2d 3e db 89 d4 bd
       -0.19263117 0.19704291 0.16944629 -0.10377856
0003a0 17 df 02 be af 58 48 3e ed da 1b be 69 a2 e5 bd
       -0.12780415 0.1956508 -0.15220232 -0.11212618
0003b0 9a 0d 3c bc 61 c4 42 be 48 99 b0 3c 93 35 2e be
       -0.011477852 -0.19020225 0.021557465 -0.17012624
0003c0 e3 ac a6 bd bd 66 4a 3e 45 37 07 3d 5a ef 18 3e
       -0.08138444 0.19765754 0.033011694 0.14935055
0003d0 95 c5 09 3e 8a a3 01 bd eb 5c bf bc f9 2e 21 be
       0.13454278 -0.031650104 -0.023359736 -0.15740575
0003e0 85 c9 53 3e b3 f2 2a 3e 59 8c af bd 7c 52 8f bd
       0.20682342 0.16694145 -0.08571691 -0.069981545
0003f0 ec 6a 2e 3e 49 19 8f 3d 2c c8 1f be 69 53 79 3d
       0.17032975 0.06987245 -0.15603703 0.06087056

fc1.bias f4 [64]
000000 34 d3 12 3d f9 30 5d be 10 61 3e 3e 8c fa b4 3d
       0.03584595 -0.21600713 0.18591714 0.088368505
000010 2c 14 f1 3d 36 5b 2a 3e ba b3 3d be 3c 08 2f 3e
       0.117714256 0.16636357 -0.18525591 0.17092985
000020 9e 3d 7b be 37 7c 21 be 1e 2a a5 bd b6 4d 42 be
       -0.24535224 -0.1577004 -0.08064674 -0.18974957
000030 10 42 bc bd e3 6e 73 3e 8d 59 d3 3b 2f 65 0e be
       -0.09192288 0.23772769 0.0064498843 -0.13905786
000040 f4 80 5a be 28 f2 ea 3d c6 72 02 be 7d 98 3d 3e
       -0.21338254 0.11471969 -0.12739095 0.18515201
000050 78 8c 99 3d 8f ff 5c be 24 00 ae bd 6c 93 35 3d
       0.074974954 -0.21581863 -0.084961206 0.044330046
000060 3f 6a e2 bd 78 c8 81 3d 68 36 13 3e 2a e5 e6 bd
       -0.11055421 0.063370645 0.14376223 -0.11274178
000070 00 08 29 be b0 b2 16 be 3c 02 ac bc a1 de 40 3d
       -0.16506958 -0.14716601 -0.02099716 0.047087315
000080 98 92 52 bd b9 25 7b be 1a 78 80 3e 20 9a 9d bd
       -0.051409334 -0.24526109 0.2509163 -0.07695413
000090 17 ba 7a 3d 38 e0 c7 3d a9 79 1e be 61 4b 20 be
       0.061212625 0.09759563 -0.15476097 -0.15653755
0000a0 84 8f ff 3d d9 1b 90 bc 2d a7 e8 bc e8 5b f7 3d
       0.12478545 -0.017591404 -0.028400028 0.120780766
0000b0 f4 0c 60 be bd e4 6b bd 84 b8 ab 3d 56 01 57 3e
       -0.21879941 -0.05759119 0.08384803 0.20996603
0000c0 29 e5 25 bd 1e 24 ee 3d ae 55 4b 3e d7 40 0e 3d
       -0.040501747 0.116279826 0.19856903 0.034729805
0000d0 40 d7 20 3d 88 fe 93 bd 03 56 4d be 58 20 b5 bc
       0.03926778 -0.07226282 -0.20052342 -0.02211015
0000e0 a4 3d c5 bd 99 ac e2 3d 5f a9 48 be 0d 62 18 be
       -0.09630898 0.11068077 -0.1959586 -0.14881153
0000f0 20 42 80 bd d3 9a 16 3e d2 34 63 3d 32 57 83 bd
       -0.06262612 0.14707498 0.055470295 -0.064131156

fc2.weight f4 [5, 64]
000000 41 ba 74 3c 9e 79 5b 3d 43 0d f5 bd 0f 4d 08 be
       0.0149369845 0.05358278 -0.1196542 -0.13310646
000010 a6 92 e1 bd c9 1c 04 3c 3e 03 af 3a 34 04 5f 3d
       -0.11014299 0.008063504 0.0013352407 0.054447368
000020 f5 62 a2 3d 05 03 d2 3d 6b b3 d6 bd 1f 0d 86 3d
       0.07929031 0.10254482 -0.1048344 0.065454714
000030 ae 8a e7 bd fa d3 0b 3d e9 00 1a bd e9 9d 51 bd
       -0.11305748 0.034137703 -0.037598524 -0.051175985
000040 2c 51 cd 3d f3 3b 6d 3b e9 6c 70 3c 14 16 ce 3a
       0.10025248 0.0036199063 0.014674404 0.0015723133
000050 0e ef fe bd e3 df e7 3c 3f 48 5d bd a7 ad 6d bd
       -0.1244794 0.028305 -0.054023977 -0.058026936
000060 4f ff d9 bd d8 f6 cf bd 92 aa 01 be 9b a3 d3 3d
       -0.106443994 -0.101545036 -0.12662724 0.1033394
000070 2e 6a ca bc 5b ff 05 be cc c2 05 bd 99 5a 62 bd
       -0.024708834 -0.13085692 -0.032656476 -0.055262182
000080 b4 b7 f7 bd 4e 01 a8 3b 91 78 bf bc ab 27 08 be
       -0.120955855 0.0051271087 -0.02337292 -0.13296382
000090 52 54 5b bb 40 b0 9c 3d b0 f7 e9 bd 41 f4 91 bd
       -0.0033467007 0.076508045 -0.11424196 -0.07126666
0000a0 0d 22 5a bd 82 25 86 3d fe 60 08 be 78 6f ca bd
       -0.05325513 0.06550123 -0.1331825 -0.09884542
0000b0 c0 29 e4 3b 48 48 04 be d0 55 94 3c 03 59 78 3c
       0.006962985 -0.12918198 0.018107325 0.015157941
0000c0 e7 8a cd bd d7 40 0b be 4e 2d bf bd 77 77 a9 3d
       -0.10036259 -0.13598953 -0.09334813 0.08274739
0000d0 b6 a5 c9 3d 78 03 19 bc ca cd 40 bb 1a d3 a8 3c
       0.0984606 -0.009339206 -0.0029419535 0.020608474
0000e0 d0 78 c3 bc 9a 4d 8f 3d b4 59 c3 3d f0 cf fa bd
       -0.023861319 0.06997223 0.09538594 -0.12246692
0000f0 6c 29 bc 3d 37 c1 86 3d fe 15 e4 bd 18 ee ba bc
       0.09187588 0.065798216 -0.11137007 -0.02281861
000100 69 3b e7 bd b5 cd 37 3d 41 19 10 be ce d3 66 3d
       -0.112906285 0.044873912 -0.14072134 0.056354336
000110 80 93 4e 3b a9 3e 2c 3d 1d 91 ab bd a0 e9 13 3d
       0.0031521022 0.042051945 -0.083772875 0.036111474
000120 70 bf 56 3d 1b b4 ff b9 61 8e 1f bd 44 30 b8 bd
       0.052428663 -0.0004877158 -0.038954142 -0.08993581
000130 92 78 aa 3d 90 66 0a be 97 d5 76 bd 1c 40 b7 bd
       0.08323778 -0.13515687 -0.06026229 -0.08947775
000140 40 16 75 bb cc 4a 75 3d 36 17 3f bb f9 7a c4 bd
       -0.0037397295 0.059885785 -0.0029158122 -0.09593768
000150 e0 da 72 3c 67 e7 45 bd 6f 8a 8c 3b 09 63 01 be
       0.014822692 -0.048316386 0.0042889635 -0.12635435
000160 76 91 4a 3d 58 4d 12 3d b3 19 ba bd 6d 7c 17 3c
       0.04945513 0.035718292 -0.09086933 0.009245974
000170 e7 70 1e be 19 6a 7e 3d 9a ee 4d 3d 7d 19 05 be
       -0.15472756 0.0621129 0.050276376 -0.12998004
000180 06 d2 95 bd 46 14 98 3d b6 0b ce bd 86 ef 48 bd
       -0.073154494 0.07425742 -0.100608274 -0.049056552
000190 94 07 1a bc 80 60 7a 3b b2 d0 e8 bd 96 c1 3f bd
       -0.009401221 0.003820449 -0.113679305 -0.046815477
0001a0 5e 1f b8 bc e1 8a 16 be 76 33 2d 3b 40 62 1e bb
       -0.022475895 -0.14701416 0.0026428378 -0.0024167448
0001b0 be 0f 86 3d 0a 20 1a bb a8 31 ab bc 8c 4b 03 bd
       0.06545971 -0.0023517632 -0.020897701 -0.03205447
0001c0 ab 65 73 ba 21 ef 5a 3c 7c 03 97 3d bf 8b a5 3d
       -0.0009284864 0.013362677 0.073737115 0.08083295
0001d0 38 77 f8 3c c2 4c 77 3d ee e2 d5 3c 2f 41 a4 3b
       0.030330285 0.060375936 0.026109185 0.0050126533
0001e0 5e b8 a9 bd 3f 82 19 3d 7c a2 ae bd 78 31 22 bc
       -0.082871184 0.037477728 -0.08527085 -0.00989949
0001f0 70 74 73 3d 26 0d c0 3a 49 23 96 bc b0 97 69 3d
       0.059437215 0.0014652356 -0.018327372 0.057029426
000200 48 9c 8d 3c 26 01 a6 3d 1a f6 d1 3d 0e 75 e4 bd
       0.017286435 0.08105688 0.10252018 -0.11155139
000210 90 9d 01 3d b5 75 15 3e 4e 03 36 3c a4 15 60 3d
       0.031644404 0.14595683 0.011109186 0.054708138
000220 79 b3 21 bd aa ce e8 3d ce fd 0b 3b 2e cf 04 3c
       -0.0394778 0.11367543 0.0021360996 0.008106036
000230 fc 26 c1 3d 19 5b 3a 3d 4e 8b e0 bc 0d 32 74 bd
       0.09431264 0.045497034 -0.027410176 -0.059618045
000240 8c 12 15 bd 35 c6 bb bd f0 52 c3 bd 76 d6 49 3d
       -0.03639464 -0.09168664 -0.095373034 0.04927679
000250 14 00 cc 3d 2a ce c9 bc 31 d8 fa bd 2f 22 32 3d
       0.099609524 -0.02463444 -0.122482665 0.04348963
000260 ea f7 af 3d 70 14 e1 3d 41 05 8b 3d ac 26 27 bc
       0.08592208 0.10990226 0.067881115 -0.010202091
000270 13 8f cc 3d dc cb 83 3d 5b 96 af 3c 4f b5 a7 bd
       0.09988227 0.064353675 0.021434 -0.08188879
000280 20 72 d8 3d e0 5e b2 bc 80 ba 86 bd af ab d5 bd
       0.105686426 -0.021773756 -0.06578541 -0.10433137
000290 3b de 7b bd 48 0e b6 bc dc 71 eb bd bf c3 fa bd
       -0.061491232 -0.022223607 -0.11496326 -0.12244367
0002a0 05 6f 7d 3d 52 43 1d 3d ad 43 88 bd 08 15 58 bd
       0.061873455 0.03839428 -0.06653533 -0.052754432
0002b0 f0 f3 1b 3c fc 29 ad 3d e0 4b 28 3c 93 e5 94 3d
       0.009518608 0.084552735 0.010271996 0.0727035
0002c0 3b de 3d bd 81 bb 80 bd f0 e9 5f bd 52 9c bc bc
       -0.046354514 -0.062857635 -0.05466646 -0.023023758
0002d0 58 0e a9 3c 0a d0 d1 3b 56 d1 cb 3c cf ae 04 be
       0.020636722 0.006402974 0.024880093 -0.12957309
0002e0 16 11 fc 3d a7 e3 ec bd 9c f5 d5 3d a3 56 5d bd
       0.123079464 -0.11566859 0.10447237 -0.0540377
0002f0 60 98 fb bb 7d 56 06 be e7 43 35 3d 74 63 b0 3d
       -0.0076780766 -0.1311893 0.04425421 0.08612719
000300 5e ed 02 3e 4f 08 c4 bd 7e 23 35 3d cd 2a 21 3c
       0.12785861 -0.09571897 0.0442233 0.009836865
000310 fe 25 b6 3d 98 4c 67 bc 1b 0d 5e 3d d8 18 96 bc
       0.08893965 -0.0141173825 0.054211717 -0.018322393
000320 64 e9 8d 3d de 80 92 bc 2d 52 47 3d a6 97 97 bd
       0.06929281 -0.017883714 0.048662353 -0.074019715
000330 8f de 1d be ea dd ab bd 5c 18 eb bc 17 80 c8 3c
       -0.1541693 -0.08391936 -0.028698139 0.02447514
000340 52 ff f7 bd ee 82 73 bd d4 24 37 bd d0 49 de 3c
       -0.12109245 -0.059451036 -0.044712856 0.027134806
000350 28 5b 32 3d 00 4a 66 bd 72 46 62 bc 9f 88 9a 3d
       0.043543965 -0.056222916 -0.013810741 0.0754559
000360 88 4c e5 bd 14 f4 a5 bd f0 97 99 bd f8 07 b8 bd
       -0.11196238 -0.08103195 -0.07499683 -0.08985895
000370 c6 61 5f bd 5b a3 ba 3d 88 c8 a7 3c e9 97 a6 bd
       -0.054536603 0.09113189 0.020481363 -0.08134443
000380 f8 aa 48 3d f2 d6 ca 3d 4d 95 7b 3d 88 75 92 3d
       0.048991174 0.09904279 0.06142168 0.071513236
000390 47 b2 ec 3c 70 3b 04 3d e0 86 d2 bd 67 f2 13 be
       0.028893603 0.032283247 -0.102796316 -0.14447938
0003a0 b0 31 9b bb 43 c2 1e bc e4 4d 03 3e f0 9d 80 3d
       -0.004736148 -0.00968987 0.12822682 0.06280124
0003b0 b8 94 ab bd 5d 53 59 bd ca ea f0 3d c4 ba cf 3c
       -0.08377975 -0.053058017 0.117635325 0.025357611
0003c0 16 1a d0 bd cd 48 30 3c e0 3b 9a bd 7c 03 67 bd
       -0.101612255 0.010759545 -0.075309515 -0.056399807
0003d0 18 c1 9b 3d 58 34 df bd 1d 4b 73 bd fc ea 2a 3d
       0.07605189 -0.10898656 -0.059397805 0.041728005
0003e0 00 6e 9f bb a4 46 dc bd 54 b3 62 3d ce be 90 3d
       -0.004865408 -0.10755661 0.055346802 0.07067643
0003f0 c4 f7 be bd 82 5c 9c 3d b9 86 a9 3d b0 3a 34 bc
       -0.09324601 0.07634832 0.082776494 -0.01100032

fc2.bias f4 [5]
000000 94 50 b7 bd 46 d7 0a bd 17 f4 8a 3d 54 9d 01 be
       -0.08950916 -0.033896707 0.06784838 -0.12657672
000010 4a cd 85 bd
       -0.065332964
