models/gdn_model.pth (torch_old, 6247 bytes, 6 tensors)

feature_means f4 [13]
0	0x30cccccd	1.4901161e-09
1	0x00000000	0.0
2	0xb1cccccd	-5.9604646e-09
3	0x31cccccd	5.9604646e-09
4	0x314ccccd	2.9802323e-09
5	0xb1e00000	-6.519258e-09
6	0x00000000	0.0
7	0xb20ccccd	-8.195639e-09
8	0xb1cccccd	-5.9604646e-09
9	0x31cccccd	5.9604646e-09
10	0xb1cccccd	-5.9604646e-09
11	0xb2333333	-1.0430813e-08
12	0x30cccccd	1.4901161e-09

feature_stds f4 [13]
0	0x3eb5ff34	0.35546267
1	0x3ea2fe97	0.31834862
2	0x3e987bca	0.29781944
3	0x3eacb6dc	0.3373326
4	0x3e8563a4	0.26052582
5	0x3e978d6a	0.29600078
6	0x3ec57dc5	0.38572517
7	0x3e88b993	0.26704082
8	0x3eb2686c	0.34845293
9	0x3e822eac	0.25426233
10	0x3ed47127	0.41492578
11	0x3ea6a2e6	0.32546157
12	0x3ea835c8	0.32853532

fc1.weight f4 [64, 13]
0	0xbdc02801	-0.0938263
1	0xbd157b66	-0.036494635
2	0x3e99761d	0.29972926
3	0xbd256642	-0.040380724
4	0xbd9af8bc	-0.075669736
5	0xbe58c7da	-0.21169987
6	0x3dc320ba	0.095277265
7	0xbe3c6d4e	-0.18401071
8	0x3dfb33bb	0.12265726
9	0xbc298e85	-0.010348921
10	0xbd3b8257	-0.0457786
11	0x3dc9037e	0.09815119
12	0xbe1d3cc0	-0.15355206
13	0xbdda6d9f	-0.1066544
14	0xbe95102f	-0.2911391
15	0xbd0cb919	-0.03435621
16	0x3db37591	0.087626584
17	0x3e8e97be	0.27850145
18	0x3e3ce7d2	0.18447807
19	0xbe5cd61c	-0.21566051
20	0xbe88d4c7	-0.26724836
21	0x3c17c687	0.009263641
22	0x3e92a708	0.2864306
23	0x3caeae06	0.021323215
24	0x3e4a984c	0.19784659
25	0x3d7e1190	0.062028468
26	0xbb9707c0	-0.004609078
27	0xba06466a	-0.0005122187
28	0x3e273878	0.16330135
29	0xbdc461c0	-0.09588957
30	0x3e700c41	0.23442174
31	0x3dae779c	0.085189074
32	0x3c94825e	0.01812857
33	0x3c7b92f3	0.01535486
34	0x3db33d96	0.08751981
35	0x3de2b5ac	0.110698074
36	0xbdb7c881	-0.0897379
37	0x3e256c9e	0.16154715
38	0xbe135ec5	-0.1439162
39	0x3d35f04a	0.04441861
40	0xbe231dd3	-0.15929346
41	0x3e1d41a2	0.15357068
42	0x3c38aea0	0.011272103
43	0x3ca073c6	0.019586455
44	0x3e2bd237	0.1677941
45	0x3e891412	0.26773125
46	0xbe997c1e	-0.29977506
47	0xbe4dcac8	-0.20096886
48	0x3dc38f80	0.09548855
49	0x3caec0cc	0.021332167
50	0x3e365010	0.17803979
51	0xbd2f7086	-0.04283192
52	0xbe218dae	-0.15776703
53	0xbd778c13	-0.06043632
54	0x3e02a9ad	0.12760039
55	0x3db59643	0.08866551
56	0x3d9aee59	0.075649925
57	0xbda1559d	-0.078776576
58	0x3e471b0a	0.19443908
59	0xbb9000c7	-0.004394624
60	0xbc90495f	-0.017613111
61	0x3e4edad3	0.20200662
62	0xbca07f60	-0.019591987
63	0xbe274bd0	-0.16337514
64	0x3ced2b73	0.028951382
65	0xbdcf781c	-0.10130331
66	0xbe828eef	-0.25499675
67	0x3e001316	0.1250728
68	0xbc226674	-0.009912122
69	0xbddd3be8	-0.10802442
70	0xbe860b63	-0.26180562
71	0x3d36733e	0.044543497
72	0xbdf39de9	-0.11895353
73	0x3e6a9e35	0.22911914
74	0x3ea8df4b	0.3298286
75	0x3e96f49d	0.294835
76	0x3db32d8b	0.08748921
77	0xbde5f9eb	-0.11229309
78	0xbe1a7c04	-0.1508637
79	0xbdad0652	-0.08448471
80	0x3e3477f5	0.17623885
81	0x3e839094	0.25696242
82	0x3da70ab9	0.08156342
83	0xbe84ecff	-0.25962064
84	0xbde73078	-0.112885416
85	0x3e50c7c5	0.20388706
86	0xbe788b8c	-0.24271983
87	0xbda17274	-0.07883158
88	0xbe9630a1	-0.29333976
89	0x3e2e94ed	0.17048998
90	0xbe0aabef	-0.1354215
91	0x3e206d0f	0.15666603
92	0x3cf93ffb	0.030426016
93	0x3d3d4092	0.046204157
94	0x3e86e9b7	0.26350185
95	0x3e55ead1	0.20890357
96	0xbe43b4df	-0.19111966
97	0x3e634e0a	0.22197738
98	0x3e3c84a8	0.1840998
99	0x3d3ff926	0.046868466
100	0xbd5a72a7	-0.053331997
101	0x3b3e651e	0.002905197
102	0x3d60db3d	0.054896582
103	0xbdb95930	-0.09050214
104	0xbe91bcf1	-0.28464463
105	0xbcfe8fad	-0.03107437
106	0xbe8c1ad5	-0.2736422
107	0xba60b1f1	-0.0008571437
108	0xbcd6a0a3	-0.026199644
109	0xbd4c27ea	-0.049842753
110	0xbe70320e	-0.23456594
111	0x3c17d118	0.00926616
112	0xbe6405b0	-0.22267795
113	0xbe9d98c2	-0.30780607
114	0x3e415d32	0.18883207
115	0x3df219d6	0.11821334
116	0x3e706070	0.23474288
117	0xbe811a92	-0.25215584
118	0xbdec1f02	-0.11529352
119	0x3e198636	0.14992604
120	0xbe6956ac	-0.22786969
121	0x3e5dd4da	0.21663228
122	0xbe751c1b	-0.23936503
123	0x3df18b88	0.117941916
124	0x3d8e1d7c	0.069392174
125	0xbe0c4a3c	-0.13700193
126	0x3e3d7202	0.18500522
127	0xbd806760	-0.06269717
128	0x3ddfcfbd	0.10928295
129	0x3e5ff51b	0.21870844
130	0x3d158153	0.036500286
131	0x3e09d983	0.1346188
132	0x3d52862c	0.051397488
133	0xbc5af946	-0.0133650955
134	0x3da232c8	0.07919842
135	0xbdf3eb6d	-0.11910138
136	0x3d38f079	0.045151208
137	0x3dd3b6d2	0.103376046
138	0xbe1f8531	-0.15578152
139	0xbe1d60aa	-0.15368906
140	0xbda4f746	-0.08054976
141	0x3dd26546	0.102732226
142	0x3e026634	0.127343
143	0x3e3fd7d5	0.18734677
144	0xbdeeceb1	-0.11660517
145	0xbd791f4a	-0.060820855
146	0x3da37fc0	0.07983351
147	0xbe560280	-0.20899391
148	0x3e74142c	0.2383582
149	0xbea57ca7	-0.32321665
150	0xbe913df8	-0.2836759
151	0xbc80eb7d	-0.01573729
152	0x3d65cf75	0.05610605
153	0x3e9db1e9	0.30799797
154	0x3e233ef8	0.1594199
155	0xbdf78abb	-0.120870076
156	0xbc8adffb	-0.016952505
157	0x3d8acf6a	0.06777842
158	0x3e5f3d65	0.21800764
159	0xbe060659	-0.13088359
160	0xbe362d80	-0.17790794
161	0x3da751fe	0.08169936
162	0x3e1f2521	0.15541507
163	0x3ea6638d	0.32497826
164	0xbc3b0c12	-0.011416452
165	0xbd25f5c1	-0.040517572
166	0xbdd1c650	-0.10242903
167	0xbdedcb1d	-0.116110064
168	0xbd29dc3d	-0.0414698
169	0xbd195bc8	-0.037441045
170	0x3e39c54f	0.18141674
171	0x3d39fb23	0.04540552
172	0xbe8aa0f9	-0.27075937
173	0xbdceb209	-0.10092551
174	0xbe6cde58	-0.23131692
175	0x3e82a5a4	0.25517
176	0xbe5c504f	-0.2151501
177	0x3e85095f	0.25983712
178	0xbde54eb7	-0.11196654
179	0x3e5aed26	0.21379527
180	0xbd7b96e5	-0.0614232
181	0x3e061b27	0.13096295
182	0xbe34154a	-0.17586246
183	0xbe918031	-0.28418115
184	0x3e4098d6	0.18808302
185	0x3dde0f29	0.10842735
186	0x3e74e191	0.23914172
187	0xbddfa380	-0.10919857
188	0xbd5a949d	-0.053364385
189	0xbe36ae76	-0.17839989
190	0xbdfd1c24	-0.12358883
191	0x3e3edd3d	0.18639083
192	0xbe709a55	-0.23496373
193	0xbe5e9e02	-0.21739963
194	0x3e3c0f0c	0.18365115
195	0x3e5a75e1	0.2133403
196	0x3db15d12	0.0866033
197	0xbcd96b64	-0.026540466
198	0xbe8c734a	-0.2743171
199	0xbd90844a	-0.07056482
200	0xbe61c282	-0.22046855
201	0xbcf27207	-0.029595388
202	0x3e2d8f84	0.16949278
203	0x3e092549	0.1339313
204	0xbe2926b3	-0.16518669
205	0x3caa638d	0.020799423
206	0xbdb7ce38	-0.0897488
207	0xbe18816f	-0.14893125
208	0x3e764cde	0.2405276
209	0x3e0c6a17	0.13712345
210	0x3d52c2e3	0.05145539
211	0xbe421f82	-0.18957332
212	0x3d712a42	0.05887819
213	0x3df79045	0.12088064
214	0xbe33a9fd	-0.17545314
215	0x3e2adbf3	0.16685466
216	0x3da8239f	0.08209919
217	0xbd6c4245	-0.057680387
218	0x3e12a854	0.14322025
219	0xbe41f179	-0.18939771
220	0xbe2ad8aa	-0.16684213
221	0xbd77f32d	-0.060534645
222	0x3ea21c73	0.3166233
223	0xbba573ac	-0.0050491896
224	0xbdad3172	-0.084566966
225	0x3d9ee618	0.07758731
226	0x3da1f454	0.0790793
227	0xbd0ce5cd	-0.034398843
228	0xbca9d5c7	-0.02073182
229	0x3e4eeffe	0.20208737
230	0xbd6f653b	-0.05844615
231	0xbe2cfef5	-0.16894133
232	0xbe5bb99a	-0.2145752
233	0x3e43fc0a	0.19139114
234	0x3e8f17a2	0.27947718
235	0xbe1cbaf6	-0.15305695
236	0xbe70daa9	-0.23520912
237	0xbe3ca487	-0.18422137
238	0x3e4ea428	0.20179808
239	0x3e141cd2	0.14464119
240	0xbd89790f	-0.06712543
241	0x3e2f93d7	0.1714624
242	0xbe5ee92a	-0.21768633
243	0x3e8af808	0.27142358
244	0xbd8fc352	-0.07019676
245	0xbddc819d	-0.10766909
246	0xbe3b6552	-0.1830037
247	0x3e46799c	0.19382328
248	0xbe55e7e3	-0.20889239
249	0x3e6b2e65	0.22966917
250	0x3ddee0cc	0.1088272
251	0x3e60c669	0.21950687
252	0xbe4c6ab7	-0.19962583
253	0xbda0db3a	-0.07854314
254	0xbde938e9	-0.11387808
255	0xbe612d2e	-0.21989891

fc1.bias f4 [64]
0	0xbd082394	-0.033237055
1	0x3e76e87f	0.24112128
2	0x3e92a18f	0.28638884
3	0x3e82abcd	0.255217
4	0xbd2154a0	-0.039387345
5	0xbe535152	-0.2063649
6	0xbdc98b67	-0.09841042
7	0x3e8cfe16	0.27537602
8	0xbd95fd6c	-0.07323727
9	0xbd158ffe	-0.036514275
10	0x3c8112b8	0.015755996
11	0x3e8c51bc	0.27406108
12	0x3c0c6355	0.0085686045
13	0x3de479b6	0.11156027
14	0xbdd1e603	-0.102489494
15	0x3e3a0d8b	0.18169229
16	0xbdb46341	-0.08807994
17	0x3e475851	0.19467284
18	0x3dd0e1aa	0.10199292
19	0xbe15e14a	-0.14636722
20	0x3de50e52	0.11184372
21	0x3e93fc56	0.28903455
22	0xbe67e88c	-0.22647303
23	0xbd6ba999	-0.057534788
24	0xbe3b9599	-0.18318786
25	0x3df2a06d	0.11847005
26	0x3e8a2993	0.26984844
27	0x3e134bbf	0.14384364
28	0x3d16e9ad	0.036843944
29	0x3d0da7ad	0.034583736
30	0xbe56e565	-0.20985945
31	0x3d9d8ad5	0.07692496
32	0xbd946310	-0.07245457
33	0xbe5b455d	-0.21413179
34	0x3df09b41	0.11748362
35	0xbe44e766	-0.19228896
36	0x3caf5550	0.021402985
37	0x3e438716	0.190945
38	0x3d930f58	0.07180661
39	0x3d6f7935	0.0584652
40	0xbe74c3cd	-0.23902817
41	0xbe843db6	-0.25828332
42	0xbe383264	-0.17987972
43	0xbe8f7914	-0.28022063
44	0x3e1c110d	0.1524088
45	0xbe82fd26	-0.25583762
46	0xbdf87d8a	-0.1213332
47	0x3c8fe3f7	0.017564757
48	0xbe73c7f2	-0.23806742
49	0xbe2ba079	-0.16760434
50	0xbe1f8ab7	-0.1558026
51	0x3ea7646f	0.32693812
52	0xbe89adbc	-0.2689036
53	0xbe340363	-0.17579417
54	0x3e43a5a0	0.1910615
55	0xbe350027	-0.1767584
56	0x3c6158c9	0.013754078
57	0x3e046731	0.1292999
58	0xbe8be51d	-0.27323237
59	0x3d8b022b	0.06787523
60	0x3d99fd6b	0.07519039
61	0x3d944b3a	0.07240911
62	0xbe8a7553	-0.27042636
63	0x3e525262	0.20539239

fc2.weight f4 [6, 64]
0	0x3d549be4	0.05190648
1	0xbe1ad191	-0.15119006
2	0xbd14f1c8	-0.036363393
3	0xbde8019b	-0.11328431
4	0x3db61f44	0.08892682
5	0xbd861cc7	-0.065484576
6	0xbc4bcc2d	-0.012438816
7	0xbd0bdafc	-0.034144387
8	0xbdbe141d	-0.0928118
9	0xbcfa8456	-0.03058068
10	0xbca1e1a7	-0.01976092
11	0xbd142b58	-0.03617415
12	0x3d3d7ee1	0.04626358
13	0xbd15fe5a	-0.03661952
14	0x3c57b99e	0.013166813
15	0xbe2e9d17	-0.17052113
16	0xbc0ee747	-0.008722133
17	0xbe238600	-0.15969086
18	0xbe0a6c08	-0.13517773
19	0x3b2a29cd	0.0025964857
20	0x3d70c8b7	0.058785167
21	0xbcb77169	-0.022392945
22	0xbdebf463	-0.115212224
23	0x3d94c293	0.072636746
24	0xbb0e4253	-0.0021707013
25	0xbd33bcd7	-0.043881264
26	0xbde071bf	-0.10959195
27	0x3d9d9403	0.076942466
28	0x3d91226e	0.07086645
29	0xbd4a2b8c	-0.049357936
30	0xbdef8ade	-0.11696409
31	0x3b326909	0.002722325
32	0xbe1aebcd	-0.15129013
33	0xbe12331e	-0.14277312
34	0x3bc6e2c7	0.0060695144
35	0x3caa3fa5	0.020782301
36	0x3d74d41e	0.059772603
37	0xbd1afdc0	-0.03783965
38	0xbddc351b	-0.107523166
39	0x3cb40389	0.021974342
40	0x3dfbda06	0.12297444
41	0x3cde9638	0.02717124
42	0xbe14109d	-0.14459462
43	0x3d139d1c	0.036038503
44	0xbb676428	-0.00353075
45	0x3dec5a2a	0.11540635
46	0xbce50586	-0.027956735
47	0xbe26df2d	-0.16296072
48	0xbd3484db	-0.044072013
49	0xbdeacbf9	-0.11464686
50	0x3d2d6582	0.042333134
51	0xbd9c4f12	-0.07632269
52	0x3de7f2d2	0.11325611
53	0xbd579d77	-0.052640405
54	0x3d85b882	0.06529333
55	0x3c982be0	0.018575609
56	0xbe2720a3	-0.16321044
57	0xbdc6211d	-0.096742846
58	0x3c82bf4d	0.01596036
59	0x3d614f0b	0.055007022
60	0xbe1a02e0	-0.15040159
61	0xbdd4e830	-0.10395849
62	0xbcc347f8	-0.023838028
63	0xbde4b63b	-0.1116757
64	0xbe23cac6	-0.1599532
65	0xbd50178c	-0.050803706
66	0xbdb58da4	-0.088649064
67	0x3c5b8d51	0.013400392
68	0x3d1493e0	0.036273837
69	0xbda5f197	-0.0810272
70	0xbe253ad0	-0.16135716
71	0xbd1defe6	-0.038558863
72	0x3b94797b	0.004531083
73	0x3d8fa397	0.07013624
74	0x3da22743	0.07917645
75	0xbd865440	-0.06559038
76	0x3d198a0d	0.03748517
77	0xbde4b757	-0.11167782
78	0xbe1b52eb	-0.1516835
79	0xba1dfbca	-0.0006026594
80	0xbd8a9416	-0.067665264
81	0xbe1e18c0	-0.15439129
82	0x3d275bba	0.04085896
83	0x3d06861d	0.032842744
84	0xbe17306e	-0.14764568
85	0x3d1c4992	0.0381561
86	0x3da112f4	0.07864943
87	0xbe2d28f7	-0.16910158
88	0xbd9951ea	-0.07486327
89	0xbd3b1b0a	-0.045680083
90	0xbd63e689	-0.055639777
91	0x3d9157f1	0.070968516
92	0xbd1bb74a	-0.038016595
93	0xbcdb1cbe	-0.026747104
94	0xbe15e32c	-0.1463744
95	0x3d910e5e	0.070828184
96	0xbdf57a42	-0.119862095
97	0xbe2b6653	-0.16738252
98	0x3bfbba98	0.007682156
99	0xbd643538	-0.055714816
100	0x3d6ab97f	0.05730581
101	0xbe2535c0	-0.16133785
102	0x3cacc426	0.021089625
103	0xbe1c5c9a	-0.152697
104	0xbd4ca5dc	-0.049962863
105	0x3cf9ca90	0.030492097
106	0xbda608b2	-0.08107127
107	0xbd3b639f	-0.045749303
108	0xbccf8948	-0.025334015
109	0x3add5f80	0.0016889423
110	0xbe05c929	-0.13065018
111	0xbd0a1121	-0.03370774
112	0xbca74e53	-0.02042309
113	0x3ce81da3	0.028334444
114	0x3d38fe03	0.04516412
115	0x3cffd6cf	0.031230358
116	0xbb329e40	-0.002725497
117	0xbdb9ac52	-0.090660706
118	0xbd85835d	-0.06519196
119	0x3d5ebae4	0.05437745
120	0xbc5497ce	-0.012975646
121	0xbde81b8a	-0.11333378
122	0xbc21714c	-0.009853672
123	0x3d82d08b	0.06387433
124	0xbddda95f	-0.108233206
125	0xbcf36d9e	-0.029715355
126	0xbd56b598	-0.052419275
127	0x3d30fcaa	0.04320971
128	0xbe0f40e6	-0.139896
129	0xbe129e30	-0.14318156
130	0x3d728b51	0.059214894
131	0xbccb9c7f	-0.024854897
132	0x3d783de7	0.06060591
133	0xbe2c8aa2	-0.16849759
134	0x3d0ad825	0.033897538
135	0xbe058dd6	-0.13042387
136	0xbe04df9d	-0.12975927
137	0xbe183dcd	-0.14867325
138	0xbcd9bece	-0.02658024
139	0xbe30c5af	-0.1726291
140	0xbe19410b	-0.14966218
141	0x3d566a82	0.052347668
142	0xbceb5b1b	-0.028729966
143	0x3ca5bec9	0.020232575
144	0xbca0dabf	-0.019635556
145	0xbe32b70e	-0.17452642
146	0xbde87e93	-0.11352267
147	0xbe0eb061	-0.1393447
148	0xbe32508f	-0.17413543
149	0xbb8adcfe	-0.00423777
150	0x3c2d340e	0.010571493
151	0xbdf9575f	-0.12174868
152	0xbddd9a93	-0.10820498
153	0x3d9184b7	0.071053915
154	0xbdaafec2	-0.083493724
155	0xbdb3cf21	-0.08779741
156	0xbdc1861f	-0.0944941
157	0xbe1a61cc	-0.15076369
158	0x3d02a1e0	0.031892657
159	0x3cf13578	0.029444441
160	0xbd2167c0	-0.039405584
161	0xbe158acd	-0.1460373
162	0xbd3624f9	-0.044468854
163	0xbc154d73	-0.009112704
164	0x3d8480ac	0.06469855
165	0xbd0b822a	-0.03405968
166	0xbddf2797	-0.10896223
167	0xbda5d424	-0.08097103
168	0xbbf67ec0	-0.007522434
169	0x3dcae42f	0.09906804
170	0x3b110174	0.002212611
171	0x3cf0f08a	0.029411573
172	0xbdf495a7	-0.119426064
173	0x3df316d4	0.118695885
174	0xbdaa7fdb	-0.08325168
175	0xbca94e98	-0.02066736
176	0x38d1619a	9.984076e-05
177	0xbc796b42	-0.015223326
178	0x3d7af469	0.061268244
179	0x3cafc976	0.021458369
180	0x3d73f884	0.059563175
181	0xbe10ff23	-0.14159827
182	0xbd6d8b98	-0.057994455
183	0x3d75bc64	0.059994116
184	0xbe1a2d2e	-0.15056297
185	0xbdb04f42	-0.08608867
186	0x3c802c1b	0.015646031
187	0xbe00bab4	-0.12571222
188	0xbdeeec0e	-0.116661176
189	0xbdaae200	-0.08343887
190	0x3d907c38	0.07054943
191	0xbdc640e7	-0.09680348
192	0xbe1cee69	-0.15325321
193	0x3c93c514	0.01803831
194	0x3bbfb21e	0.0058500906
195	0xbe042e99	-0.129084
196	0xbd774669	-0.060369883
197	0xbce461e1	-0.027878704
198	0xbd83c319	-0.06433696
199	0xbddf5802	-0.10905458
200	0xbdda1842	-0.10649158
201	0xbca72a69	-0.020405965
202	0x3d2f58af	0.042809185
203	0xbd9f924c	-0.07791576
204	0xbd887e17	-0.06664675
205	0xbd345e27	-0.044035103
206	0xbc2dfe80	-0.01061976
207	0x3d2851e3	0.04109372
208	0x3d70d846	0.058800004
209	0xbd9623ad	-0.07331023
210	0xbc1fcc54	-0.009753305
211	0x3a1a6a56	0.0005890479
212	0xbe004327	-0.12525617
213	0xbe16d4a3	-0.14729552
214	0xbde8db0f	-0.11369907
215	0x396f8740	0.000228432
216	0x3d591a75	0.053003747
217	0xbd12741f	-0.035755273
218	0xbba04f50	-0.0048922673
219	0xbdfe2d57	-0.12410992
220	0xbde5f696	-0.11228673
221	0xbab13b55	-0.0013521711
222	0xbddf5aab	-0.109059654
223	0xbd9da658	-0.07697743
224	0xbcf1654b	-0.029467246
225	0x3d157ea4	0.036497727
226	0xbe0857d1	-0.1331475
227	0xbdfa5e66	-0.12225036
228	0xbd904fc6	-0.070464656
229	0xbb9ee2ae	-0.0048487997
230	0xbd05262c	-0.032507107
231	0xbe15c331	-0.14625241
232	0xbdac2ad4	-0.08406606
233	0x3d9565e4	0.07294825
234	0xbdc04eed	-0.09390054
235	0xbdbf0da8	-0.093287766
236	0x3d84dfd6	0.06488006
237	0xbddac838	-0.1068272
238	0x3ca2712e	0.019829359
239	0x3cca9f53	0.024734175
240	0x3db70240	0.08935976
241	0xbd9302fd	-0.07178304
242	0x3d551b2a	0.05202786
243	0xbe2318a3	-0.15927367
244	0xbc408c90	-0.011752263
245	0xbe35dc2d	-0.17759772
246	0x3d9f7683	0.07786276
247	0x3d004ab8	0.031321257
248	0xbe126103	-0.1429482
249	0xbddb520e	-0.1070901
250	0xbda46525	-0.08027104
251	0xbe1572aa	-0.14594522
252	0xbe173fa1	-0.14770366
253	0xbe339747	-0.17538176
254	0xbd55d1c8	-0.052202016
255	0x3bb5ff7a	0.005554137

fc2.bias f4 [6]
0	0xbd6bd1c3	-0.05757309
1	0xbd740f0b	-0.05958466
2	0x3d7e900e	0.0621491
3	0xbdebfdc4	-0.11523011
4	0x3c60dfd8	0.0137252435
5	0xbe1f555b	-0.15559904
