models/gdn_model.pth (torch_old, 5924 bytes, 4 tensors)

fc1.weight f4 [64, 13]
0	0xbe09e9dd	-0.13468118
1	0x3e471bbb	0.19444172
2	0xbe53c8d3	-0.20682077
3	0xbe507153	-0.2035573
4	0xbe159c11	-0.14610316
5	0x3da68a05	0.08131794
6	0x3e913f43	0.28368577
7	0xbc96e981	-0.01842189
8	0xbe414837	-0.18875204
9	0x3e5ec845	0.21756084
10	0x3e034593	0.12819509
11	0xbe4032eb	-0.18769424
12	0x3e9d549a	0.30728608
13	0xbe98e1cc	-0.2985977
14	0x3e89ad44	0.26890004
15	0xbe9b844c	-0.30374372
16	0x3d97ab4e	0.07405721
17	0xbe5560de	-0.20837733
18	0xbe0128cd	-0.1261322
19	0xbe4c8822	-0.19973806
20	0x3c547f6d	0.012969834
21	0x3a715fb6	0.00092076825
22	0x3e4f5efd	0.20251079
23	0xbc31c2e2	-0.010849686
24	0xbdf748ff	-0.1207447
25	0xbe535f3a	-0.20641795
26	0xbdbbe40b	-0.09174355
27	0x3e4e8532	0.20167997
28	0xbe834a25	-0.25642505
29	0x3e8c7201	0.27430728
30	0x3e631436	0.22175679
31	0xbe662bd9	-0.22477664
32	0xbe834c13	-0.25643978
33	0xbbdc7039	-0.006727245
34	0xbe42efa0	-0.19036722
35	0x3e4cb361	0.19990303
36	0xbde03155	-0.10946909
37	0xbdef662c	-0.116894096
38	0xbdacaa16	-0.08430879
39	0x3dbeb6b0	0.093121886
40	0xbcd7c2b5	-0.02633796
41	0x3e5a24bf	0.2130308
42	0x3dc2ef67	0.095183186
43	0x3e925bba	0.28585607
44	0x3ea1b1f8	0.31581092
45	0xbd64aad1	-0.055826966
46	0x3d741b1f	0.059596177
47	0xbe69170c	-0.22762698
48	0x3cdf65c4	0.027270205
49	0x3d3dc2b3	0.046328258
50	0xbe748a91	-0.23880984
51	0x3e1d6dd0	0.15373921
52	0x3e63cb95	0.22245629
53	0x3e419c20	0.18907213
54	0xbe5aa6e6	-0.21352729
55	0x3e573216	0.210152
56	0xbcaee04b	-0.021347186
57	0x3e82b0d9	0.2552555
58	0x3c6e5b8e	0.0145481955
59	0xbe4be242	-0.1991053
60	0xbe567c87	-0.20945941
61	0x3e8533ab	0.26015982
62	0x3e511e86	0.204218
63	0x3d4db34b	0.050219815
64	0x3d88fbee	0.06688677
65	0x3dc5ccf1	0.0965823
66	0x3e3bb773	0.18331699
67	0xbde9c368	-0.11414224
68	0x3c315afd	0.010824916
69	0x3e14e334	0.14539796
70	0xbe465c75	-0.19371207
71	0xbddaec24	-0.106895715
72	0xbdcd4086	-0.100220725
73	0x3e8b9fbb	0.27270302
74	0x3c87095b	0.016483953
75	0xbd36effc	-0.04466246
76	0xbc200f7a	-0.009769315
77	0x3e0c7331	0.13715817
78	0x3e5012d1	0.20319678
79	0xbe3194d9	-0.17341937
80	0xbc86d4e7	-0.016458942
81	0x3cd097b7	0.025462968
82	0xbe691aa1	-0.22764064
83	0x3df20405	0.11817173
84	0x3e288950	0.1645863
85	0xbe226da1	-0.15862133
86	0x3e96d30c	0.2945789
87	0xbe4a959b	-0.19783632
88	0x3e50821e	0.20362136
89	0x3e36d30a	0.17853943
90	0x3e47da43	0.19516854
91	0xbe5812e8	-0.21100962
92	0xbe6a2282	-0.22864726
93	0xbd5e22d1	-0.054232422
94	0x3e513daa	0.20433679
95	0x3e27f71b	0.16402857
96	0xbce79e80	-0.02827382
97	0x3e15a620	0.14614153
98	0xbd9bc45d	-0.07605813
99	0xbe56538c	-0.20930308
100	0xbd3a65ac	-0.045507118
101	0xbdc30b04	-0.095235854
102	0x3ca9cac7	0.020726575
103	0x3e4d6258	0.20057046
104	0xbe037d18	-0.12840688
105	0xbd6c62c8	-0.057711393
106	0xbbf4b193	-0.0074674576
107	0xbe6d235f	-0.23158024
108	0xbe62134e	-0.22077677
109	0x3d07f216	0.033189856
110	0xbd3ae16f	-0.045625146
111	0x3dadb36e	0.08481489
112	0x3cc784a0	0.024355233
113	0x3e8c451f	0.27396485
114	0x3d33e87f	0.043922897
115	0xbe646068	-0.22302401
116	0x3e2fdafb	0.17173378
117	0x3dbead82	0.09310438
118	0x3da30125	0.07959203
119	0x3e1f66d6	0.15566573
120	0x3cae9f2e	0.021316137
121	0xbcae12ef	-0.021249263
122	0xbda2b9b0	-0.07945573
123	0xbe457cd5	-0.19285901
124	0x3e422ad8	0.18961656
125	0xbe69dae7	-0.22837411
126	0xbe14aac2	-0.14518264
127	0x3e7c394e	0.24631235
128	0xbe73aae6	-0.23795661
129	0x3e86d638	0.2633531
130	0xbe0d8db6	-0.1382359
131	0xbd622b03	-0.0552168
132	0xbe23b244	-0.15985972
133	0x3ca4658f	0.020067958
134	0xbea701e3	-0.32618627
135	0xbd2569da	-0.04038415
136	0xbe80d02d	-0.25158826
137	0xbd798372	-0.06091637
138	0xbe07d6e4	-0.13265568
139	0xbdd92d24	-0.10604313
140	0x3e67c704	0.22634512
141	0x3db696ae	0.089154586
142	0x3e1cc1e1	0.15308334
143	0x3e4775e2	0.19478562
144	0x3cf09900	0.029369831
145	0x3d433120	0.04765427
146	0x3df00818	0.11720294
147	0x3df90b40	0.12160349
148	0x3cb12a50	0.021626621
149	0xbd248064	-0.040161505
150	0xbe3ab13a	-0.18231669
151	0x3e89ce21	0.26915076
152	0x3e8c86ff	0.27446744
153	0x3d672ac0	0.056437254
154	0xbe05dfc1	-0.13073637
155	0xbe52a684	-0.20571333
156	0xbdf74580	-0.12073803
157	0x3e6665c5	0.2249976
158	0xbea69ebc	-0.3254298
159	0xbd2ccb1a	-0.04218588
160	0xbe20e7cd	-0.15713425
161	0xbe18e986	-0.14932832
162	0xbe04b7aa	-0.12960687
163	0x3c7b5c92	0.015341895
164	0xbdf60cca	-0.12014158
165	0x3d54cfa8	0.05195585
166	0xbd2e32f7	-0.042529073
167	0xbdb3bd05	-0.08776287
168	0xbe8ef1e2	-0.27918917
169	0xbe6e3e83	-0.23266034
170	0xbe6ae0b2	-0.22937277
171	0xbd804afd	-0.06264303
172	0xbe7e68de	-0.24844691
173	0x3d904969	0.07045252
174	0x3dce7689	0.100812025
175	0x3e2e3ae0	0.17014647
176	0xbe39a524	-0.18129402
177	0x3dbc5042	0.091949955
178	0xbe6b2bc3	-0.22965913
179	0xbdb11a1b	-0.08647557
180	0x3da7bb9e	0.08190082
181	0xbdaf55a3	-0.08561256
182	0xbe034edf	-0.12823056
183	0xbda4e9cd	-0.080524065
184	0xbe173d2c	-0.14769429
185	0xbdc9176d	-0.09818921
186	0xbe326f1d	-0.17425199
187	0xbe57451d	-0.21022458
188	0xbd980d82	-0.074244514
189	0xbe518928	-0.20462477
190	0x3e95caad	0.29256192
191	0xbe18a7d1	-0.14907767
192	0x3e53da29	0.2068869
193	0x3e067bd5	0.13133176
194	0x3e09ea63	0.13468318
195	0xbe17835e	-0.14796206
196	0xbe5a6840	-0.2132883
197	0x3d1e02bd	0.03857683
198	0x3d422271	0.047396127
199	0x3e48c4fe	0.19606397
200	0xbd11182f	-0.035423454
201	0xbdb9ba69	-0.09068758
202	0x3e219c70	0.15782332
203	0xbb863e59	-0.004096788
204	0xbe0fe82c	-0.1405341
205	0x3e5f6f77	0.21819864
206	0x3e65d1fd	0.22443385
207	0x3d944243	0.07239201
208	0x3e138de3	0.14409594
209	0x3e6f5b90	0.23374772
210	0xbe1aa94b	-0.15103643
211	0x3de10da0	0.10988927
212	0xbdfe1cad	-0.12407813
213	0xbe432ab0	-0.19059253
214	0x3e91017c	0.28321445
215	0xbe44246b	-0.19154517
216	0xbda9ff97	-0.08300703
217	0xbe3c1cf3	-0.18370418
218	0xbd2e1e05	-0.042509098
219	0xbe3a2d23	-0.18181281
220	0x3de16f1f	0.11007523
221	0x3df962e8	0.12177068
222	0x3de6f942	0.11278011
223	0xbe4f84bc	-0.20265478
224	0xbdfa340b	-0.12216958
225	0xbdfefe6b	-0.1245087
226	0xbea4f280	-0.32216263
227	0x3dd4e7aa	0.10395749
228	0xbe4b0501	-0.19826128
229	0xbe0e76bb	-0.1391248
230	0xbe8a5943	-0.27021226
231	0xbe4815a1	-0.19539501
232	0xbe99ebba	-0.30062658
233	0xbdd8b4ae	-0.10581337
234	0xbe96b9ca	-0.2943862
235	0x3ea5d0c1	0.3238583
236	0x3e923d22	0.28562266
237	0xbe62602b	-0.22106998
238	0xbe871170	-0.2638049
239	0x3e1c9993	0.15292959
240	0x3e624dab	0.2209994
241	0xbde0db29	-0.109793015
242	0xbd3ad67c	-0.045614704
243	0x3ddf7d1a	0.10912533
244	0x3cc88d59	0.024481462
245	0xbe40bf2c	-0.18822926
246	0xbe8a519c	-0.27015388
247	0x3e657190	0.22406602
248	0xbe800a5e	-0.2500791
249	0xbe5d1792	-0.21591023
250	0x3e38dfe1	0.18054153
251	0x3cfb5f56	0.030685108
252	0xbe8b5896	-0.27216023
253	0xbe8d7d18	-0.276345
254	0x3e9ae859	0.30255392
255	0xbdeb155d	-0.11478684

fc1.bias f4 [64]
0	0xbdb86ce6	-0.09005146
1	0x3b62b322	0.0034591635
2	0x3ce4a6da	0.027911592
3	0x3d86da66	0.06584625
4	0xbbb1b17f	-0.0054227705
5	0x3e82b779	0.25530604
6	0x3d698eaa	0.05702082
7	0xbd215d38	-0.03939554
8	0xbe814b28	-0.25252652
9	0xbe62d00d	-0.22149678
10	0x3e323895	0.17404397
11	0xbe73c84e	-0.23806879
12	0xbd4d16b8	-0.050070494
13	0xbe35922c	-0.17731541
14	0x3de6e4c0	0.11274099
15	0x3df0b05d	0.117523886
16	0x3d224afc	0.039622292
17	0x3d83aa60	0.06428981
18	0x3d9a187f	0.075242035
19	0xbca3cfc9	-0.01999654
20	0x3e383d03	0.17992024
21	0xbdd4d2c2	-0.10391761
22	0xbe98ef1a	-0.2986992
23	0x3e1469be	0.14493462
24	0xbde3adfc	-0.11117169
25	0x3e226e3d	0.15862365
26	0x3e37bc46	0.17942914
27	0x3c1ddf96	0.009635827
28	0x3e27001f	0.1630864
29	0xbdab7ada	-0.083730415
30	0x3dd2117c	0.10257241
31	0x3e9f1841	0.31073192
32	0x3ea6d97f	0.3258781
33	0xbe8a5fd6	-0.27026242
34	0xbd3d0e5a	-0.046156265
35	0xbd8d716b	-0.069063984
36	0xbd93b2b2	-0.07211818
37	0x3d6b721e	0.057481878
38	0x3e4b2e24	0.1984182
39	0xbd198d23	-0.037488114
40	0x3e52b319	0.20576133
41	0x3e8804f6	0.26566285
42	0xbe615b22	-0.2200742
43	0xbe29a38e	-0.16566297
44	0xbe86e9da	-0.2635029
45	0xbe5f40dc	-0.21802086
46	0x3df21fd5	0.11822478
47	0x3ea34897	0.3189132
48	0xbe5797e2	-0.21054032
49	0xbd437252	-0.047716446
50	0x3df62c0f	0.12020122
51	0x3dcf7cab	0.101312004
52	0x3e083a3c	0.13303465
53	0x3e1132bd	0.14179511
54	0x3ce288e3	0.027653163
55	0x3e90246f	0.28152797
56	0x3e06e27c	0.13172334
57	0xbccd294a	-0.025044102
58	0xbe79df86	-0.24401674
59	0xbe3a55c4	-0.1819678
60	0x3c2515bd	0.010075984
61	0xbdd606ca	-0.10450514
62	0xbda637dd	-0.08116124
63	0x3e73af94	0.23797446

fc2.weight f4 [6, 64]
0	0x3d8fc1c9	0.070193835
1	0xbe2b6aeb	-0.16740005
2	0xbdfe16d6	-0.12406699
3	0xbc5cdbcb	-0.013480137
4	0x3d431803	0.04763032
5	0xbd87c9c1	-0.066302784
6	0xbd526fc3	-0.051376116
7	0x3c219443	0.0098620085
8	0x3d9c525f	0.076328985
9	0xbb304bf2	-0.0026900736
10	0xbdd52db0	-0.10409105
11	0x3cc90390	0.024537832
12	0x3d86b7d9	0.06578035
13	0xbbf1168f	-0.0073574255
14	0xbd233e3e	-0.03985428
15	0x3d9df292	0.07712282
16	0xbe2b9558	-0.16756189
17	0xbe340595	-0.17580254
18	0xbe33187e	-0.17489812
19	0xbd0d3c23	-0.03448118
20	0xbe09754a	-0.13423648
21	0xbddfa5fc	-0.10920331
22	0x3c6b2e9f	0.014354377
23	0x3d94b826	0.07261686
24	0xbddcb906	-0.10777478
25	0xbe27ffc5	-0.16406162
26	0xbde0a322	-0.10968615
27	0xbe155ecf	-0.14586948
28	0xbbe06290	-0.006847687
29	0x3d0fa814	0.0350724
30	0x3b5eba48	0.0033985544
31	0xbcf1bd99	-0.029509353
32	0xbda631a7	-0.08114939
33	0xbd9f5624	-0.07780102
34	0xbbd0c5c4	-0.0063712317
35	0xbd61baab	-0.05510966
36	0xbd507987	-0.050897148
37	0x3c893f9c	0.016753964
38	0xbe05a0c7	-0.13049613
39	0xbdbaac18	-0.091148555
40	0xbbfe1308	-0.0077537335
41	0xbdda63f9	-0.106635995
42	0xbdec58c8	-0.11540371
43	0xbcaba228	-0.020951346
44	0x3aa6ad80	0.0012716502
45	0x3de00b86	0.10939698
46	0x3d837cd3	0.06420293
47	0xbdc38c46	-0.095482394
48	0x3d69fa28	0.057123333
49	0x3d6386a1	0.055548314
50	0xbd30208a	-0.04299978
51	0x3cdb75c6	0.026789557
52	0x3cb77626	0.022395205
53	0xbdab3b41	-0.08360911
54	0xbde2103b	-0.11038252
55	0xbe2952c3	-0.16535477
56	0x3c2929c6	0.010324901
57	0xbdeb6bea	-0.11495192
58	0xbdaa5e5e	-0.0831878
59	0x3da3927e	0.079869255
60	0xbe0b9340	-0.1363039
61	0xbdffc9e0	-0.124896765
62	0xbd52d772	-0.051474996
63	0xbe16cf1a	-0.1472744
64	0xbdaef277	-0.0854234
65	0x3b60d02d	0.003430377
66	0x3d15721c	0.036485776
67	0xbd4f586f	-0.050621446
68	0x3da6548a	0.08121593
69	0xbba5dab0	-0.00506147
70	0x3cf9869c	0.030459695
71	0x3c90c9f0	0.017674416
72	0xbda4e9bf	-0.08052396
73	0xbd8b7a60	-0.068104506
74	0xbe2195f0	-0.15779853
75	0x3c167e00	0.009185314
76	0xbd6ba887	-0.057533767
77	0x3d22a9ad	0.039712597
78	0xbd1baacc	-0.03800468
79	0x3d5a2b72	0.05326409
80	0xbde535d2	-0.11191906
81	0xbe06da1f	-0.13169144
82	0xbd78b3d4	-0.060718372
83	0xbe00ea91	-0.1258948
84	0xbddd39a6	-0.10802011
85	0xbd096178	-0.03354022
86	0xbdf2f398	-0.11862868
87	0x3c49774e	0.012296511
88	0xbb919475	-0.0044427463
89	0x3d018d2d	0.031628776
90	0xbe1a7fee	-0.15087864
91	0x3d0dcf36	0.03462144
92	0xbe23e52c	-0.16005391
93	0x3d72e8bb	0.05930398
94	0x3d86a28f	0.06573974
95	0xbd984dae	-0.07436691
96	0xbdb36967	-0.08760338
97	0x3d337e9c	0.043821916
98	0x3da57c05	0.080802955
99	0xbe14454c	-0.1447956
100	0xbc5c872a	-0.01345996
101	0xbc28dae5	-0.010306095
102	0xbdc1cb02	-0.09462549
103	0x3b8b6d27	0.0042549553
104	0x3b9883be	0.004654377
105	0xbe2e4314	-0.17017776
106	0x3d2274b4	0.039662078
107	0xbe08fd03	-0.13377766
108	0x3c9fc720	0.01950413
109	0xbde41488	-0.111367285
110	0xbdfa25b5	-0.12214223
111	0xbd5deaec	-0.054179117
112	0x3d4047e4	0.04694356
113	0x3d7dbd53	0.06194813
114	0x3a526ece	0.00080273754
115	0xbddc7545	-0.10764555
116	0xbd183024	-0.037155285
117	0x3d86f8a1	0.06590391
118	0xbdc32ca1	-0.09529997
119	0xbdac810c	-0.08423051
120	0xbdd00c1f	-0.10158562
121	0xbcefa6c9	-0.029254334
122	0x3de3f794	0.11131206
123	0x3d68c161	0.056825045
124	0xbdedb4d5	-0.116067566
125	0xbe0a0e94	-0.13482124
126	0x3d8d11ff	0.06888198
127	0x3d6d2c2a	0.057903446
128	0xbdf894ab	-0.12137731
129	0x3d5a9f70	0.053374708
130	0x3d4921ed	0.04910462
131	0xbe221b8b	-0.1583082
132	0xbe100b74	-0.14066869
133	0xbe0b65ed	-0.136131
134	0x3d508140	0.050904512
135	0x3d74aeac	0.059736893
136	0xbd401e4d	-0.046903897
137	0x3d2e24a9	0.04251543
138	0xbd7ab48f	-0.06120735
139	0x3d624510	0.055241644
140	0xbe04a65c	-0.12954086
141	0xbd11c083	-0.035583984
142	0x3d3ba5dc	0.045812473
143	0x3d0bc4bd	0.03412317
144	0xbdb1bab9	-0.08678193
145	0xbd72a94e	-0.059243493
146	0xbdcc18d3	-0.09965672
147	0x3d3569f4	0.044290498
148	0xbe1b3be4	-0.15159565
149	0xbd15327c	-0.0364251
150	0xbdc21e62	-0.09478451
151	0x3d109a8b	0.035303634
152	0xbe398580	-0.18117332
153	0xbdc28dfb	-0.09499737
154	0x3c580476	0.013184657
155	0x3c45b985	0.012068157
156	0xbe0e4103	-0.13891988
157	0xbdb11401	-0.086463936
158	0x3ca92c53	0.020651018
159	0xbe1816b4	-0.1485241
160	0xbd18f4e8	-0.037342936
161	0xbdf968e4	-0.121782094
162	0x3daecea0	0.08535504
163	0xbdfd303c	-0.123627156
164	0xbd058556	-0.032597862
165	0xbbd241fa	-0.0064165564
166	0xbddbb305	-0.10727505
167	0xbe15b38f	-0.14619277
168	0xbe16c6e3	-0.14724307
169	0xbda25f89	-0.07928378
170	0x3d66734c	0.0562623
171	0xbcf2d5b2	-0.029642913
172	0x3de4f6ac	0.111798614
173	0x3c801d20	0.015638888
174	0xbca87cb2	-0.020567272
175	0xbe1499b8	-0.14511764
176	0xbc8f7360	-0.01751107
177	0xbe1e7496	-0.15474162
178	0xbd66fbf6	-0.056392632
179	0xbe1a7aab	-0.15085857
180	0xbd9b4983	-0.075823806
181	0xbd4956d0	-0.049155056
182	0xbd4ae765	-0.04953708
183	0xbb4a0231	-0.003082406
184	0x3d1a5e5b	0.03768764
185	0x3d60165d	0.054708827
186	0x3df423da	0.11920901
187	0xbddda44e	-0.10822354
188	0xbe265ee3	-0.16247134
189	0xbd9287da	-0.07154818
190	0x3d897cf5	0.06713287
191	0xbdfe40bc	-0.12414691
192	0xbdf8a3e2	-0.12140633
193	0xbb4a4411	-0.0030863325
194	0xbd14cca2	-0.036327966
195	0xbd8aeb50	-0.067831635
196	0xbce4a180	-0.02790904
197	0xbdfc552c	-0.12320933
198	0xbdf0523c	-0.11734435
199	0xbdca606d	-0.09881673
200	0x3da81358	0.082068145
201	0xbcf9a07f	-0.030472038
202	0x3d4c8a6d	0.0499367
203	0x3d01bea0	0.031675935
204	0xbd306435	-0.043064315
205	0xbc86a94e	-0.016438153
206	0xbdd1da2b	-0.1024669
207	0x3d676d3d	0.056500662
208	0x3c016cf3	0.007899511
209	0x3833a5a0	4.2831176e-05
210	0xbe003b40	-0.12522602
211	0xbd4becf0	-0.049786508
212	0x3d839ec5	0.06426767
213	0xbd1080a8	-0.035278946
214	0x3dcca52a	0.0999244
215	0xbd4fc307	-0.050723102
216	0xbe040d9e	-0.1289582
217	0xbda7047b	-0.081551515
218	0x3cd78f98	0.026313588
219	0x3cae1e63	0.021254724
220	0x3d82291b	0.063554965
221	0xbe01b712	-0.12667492
222	0xbdc2a284	-0.09503654
223	0xbd209229	-0.03920189
224	0xbe1036d3	-0.14083414
225	0x3d7163dc	0.058933124
226	0x3cc5794c	0.02410569
227	0xbd74f97b	-0.059808236
228	0x3d3348a4	0.043770447
229	0xbd91e4cf	-0.0712372
230	0xbcc6b877	-0.024257882
231	0xbb9c0ab9	-0.0047620204
232	0xbd300a48	-0.042978555
233	0xbe1a3aeb	-0.15061538
234	0xbcd909c8	-0.026493922
235	0xbc808092	-0.015686307
236	0x3ca49598	0.020090863
237	0x3d2dcaa8	0.042429596
238	0xbc97367d	-0.0184586
239	0xbc88fff8	-0.016723618
240	0x3d7aa800	0.061195374
241	0xbe09618b	-0.13416116
242	0x3ca395fc	0.019968979
243	0xbe07f946	-0.13278684
244	0x3c89ac11	0.01680568
245	0xbcbf88a2	-0.023380581
246	0xbdefcde0	-0.117091894
247	0xbd8022e1	-0.062566526
248	0x3bbdbe1a	0.005790484
249	0xbe0afae7	-0.13572274
250	0x3dae94e8	0.08524495
251	0xbc9451ec	-0.01810547
252	0x3d4b3a97	0.049616423
253	0xbe10d6ec	-0.14144486
254	0xbe0ebe79	-0.13939847
255	0xbc7e420b	-0.015518676

fc2.bias f4 [6]
0	0xbcff6f01	-0.03118086
1	0xbe0c47cc	-0.13699263
2	0xbd60b1cc	-0.05485706
3	0xbde9e56d	-0.114207126
4	0x3d1df568	0.038564116
5	0xbd04af9b	-0.032394033
