models/gdn_model.pth (torch_old, 7835 bytes, 6 tensors)

feature_means f4 [20]
0	0xb2f9999a	-2.9057265e-08
1	0xb1cccccd	-5.9604646e-09
2	0x3119999a	2.2351743e-09
3	0xb3266666	-3.8743018e-08
4	0x324ccccd	1.1920929e-08
5	0xb1e66666	-6.7055224e-09
6	0x31a66666	4.842877e-09
7	0xb1cccccd	-5.9604646e-09
8	0xb14ccccd	-2.9802323e-09
9	0x32800000	1.4901161e-08
10	0xb219999a	-8.940697e-09
11	0xb24ccccd	-1.1920929e-08
12	0x00000000	0.0
13	0x42460000	49.5
14	0x3f800000	1.0
15	0x40000000	2.0
16	0x40400000	3.0
17	0x40800000	4.0
18	0x40a00000	5.0
19	0x40c00000	6.0

feature_stds f4 [20]
0	0x3ec7e3c7	0.39040968
1	0x3e94598c	0.2897457
2	0x3e4c6c2f	0.19963144
3	0x3ed789cb	0.42097315
4	0x3e849806	0.25897235
5	0x3e720f3b	0.23638622
6	0x3e8f468c	0.2798351
7	0x3eb73b85	0.35787597
8	0x3eb35789	0.35027722
9	0x3e972e16	0.29527348
10	0x3e92150a	0.28531677
11	0x3e93398d	0.28754845
12	0x3e9d0fdd	0.30676165
13	0x41f23648	30.276505
14	0x358637bd	1e-06
15	0x358637bd	1e-06
16	0x358637bd	1e-06
17	0x358637bd	1e-06
18	0x358637bd	1e-06
19	0x358637bd	1e-06

fc1.weight f4 [64, 20]
0	0x3d2ecf0e	0.04267793
1	0xbdd7b0f6	-0.105317995
2	0x3c4d3db6	0.01252692
3	0xbcc05e2d	-0.023482407
4	0x3e0b8752	0.1362584
5	0xbe17a73e	-0.14809892
6	0x3e6e92b9	0.23298158
7	0xbe2b8bc4	-0.16752535
8	0x3d500aa0	0.050791383
9	0xbd790b4e	-0.060801797
10	0x3dd5ed57	0.104456596
11	0x3b882331	0.004154586
12	0xbc655e99	-0.013999605
13	0x3e0aec0c	0.13566607
14	0xbd9a9a2b	-0.075489365
15	0x3e16f8b6	0.14743313
16	0xbe2e301b	-0.17010538
17	0x3dea00af	0.11425912
18	0xbddb13c6	-0.10697131
19	0x3e1505f3	0.1455305
20	0xbdd2afce	-0.10287438
21	0xbe38f1a8	-0.18060935
22	0x3e6271d6	0.22113737
23	0x3e59136c	0.21198815
24	0xbcef1240	-0.029183507
25	0xbaadb800	-0.0013253689
26	0x3e1cfc50	0.15330625
27	0xbd3de808	-0.04636386
28	0xbdcbfbd8	-0.09960145
29	0xbe0539ea	-0.13010374
30	0xbe2b8490	-0.16749787
31	0x3e0fd048	0.14044297
32	0x3cf15180	0.029457808
33	0xbdea6e38	-0.11446804
34	0x3d3ef270	0.046617925
35	0xbdaf328c	-0.08554563
36	0xbe391f73	-0.18078403
37	0xbd0f31b4	-0.03495951
38	0x3e5dac0c	0.21647662
39	0xbe2d2ca6	-0.16911563
40	0x3e188ee0	0.14898252
41	0xbe333ab3	-0.1750286
42	0x3e010836	0.12600788
43	0xbd089775	-0.033347566
44	0x3d81afcb	0.06332358
45	0x3d2ad9b7	0.041711535
46	0xbcedaff4	-0.029014565
47	0xbc4b3895	-0.012403627
48	0xbce85281	-0.028359653
49	0xbd073a60	-0.033014655
50	0xbc9bc9a8	-0.019017056
51	0xbe277dc4	-0.1635657
52	0xbd1e88c9	-0.038704667
53	0x3d732005	0.059356708
54	0xbc89c4df	-0.016817508
55	0x3e53b8e7	0.20676003
56	0xbd8889cd	-0.066669084
57	0x3e231409	0.15925612
58	0x3db09c9a	0.086236194
59	0xbe4c3bdb	-0.19944708
60	0x3c6c0d2e	0.014407439
61	0xbe175674	-0.14779073
62	0x3dfc21e9	0.12311155
63	0xbda56413	-0.08075728
64	0xbdd8e53d	-0.10590599
65	0xbde95534	-0.11393204
66	0x3e547390	0.20747209
67	0xbcff62fb	-0.031175127
68	0xbcecdc37	-0.0289136
69	0x3e31d688	0.17366993
70	0x3d9544e3	0.0728853
71	0x3d62534e	0.055255227
72	0x3e528b1a	0.20560876
73	0x3e368bcb	0.17826764
74	0xbe075b22	-0.13218358
75	0xbe462dbc	-0.19353384
76	0xbdcd0d5b	-0.10012313
77	0xbe1e8cc9	-0.15483393
78	0xbdaa6784	-0.08320525
79	0xbdf3d080	-0.119050026
80	0x3e1f7cda	0.15574971
81	0xbda72cc0	-0.08162832
82	0xbde9f64c	-0.114239305
83	0x3e5c744e	0.21528742
84	0x3e71fe0f	0.23632072
85	0x3db71c3c	0.08940932
86	0xbe0c4b6e	-0.13700649
87	0x3d456c44	0.048198953
88	0x3dcf593a	0.101244405
89	0xbcbbf557	-0.022944136
90	0x3e25fa5e	0.16208789
91	0xbdae2773	-0.08503618
92	0x3bc0d134	0.005884314
93	0xbd4e5fb2	-0.05038423
94	0xbe47006a	-0.19433752
95	0xbe4e15c5	-0.20125492
96	0x3e385b25	0.18003519
97	0xbc85d98b	-0.016339084
98	0x3e4fe5ff	0.2030258
99	0x3e3fc869	0.18728794
100	0xbd1e26ec	-0.038611338
101	0x3da8d20c	0.08243188
102	0xbd11f2a8	-0.035631806
103	0x3dfe3964	0.1241329
104	0xbdfcc173	-0.12341585
105	0xbe0e9834	-0.13925248
106	0x3c93a068	0.018020824
107	0xbc46b570	-0.012128219
108	0x3ddce114	0.10785118
109	0x3cb9da18	0.022687003
110	0xbe5c87ca	-0.21536174
111	0x3e0af6dc	0.13570732
112	0xbe600f93	-0.21880941
113	0x3c916d68	0.017752364
114	0xbdae5648	-0.085125506
115	0x3d814cf8	0.06313509
116	0xbe34ad34	-0.17644197
117	0xbe1bf3f8	-0.15229785
118	0xbe05ad60	-0.13054419
119	0xbe1d9290	-0.1538794
120	0xbe222cc2	-0.15837386
121	0x3e36b902	0.17844012
122	0x3e11fdee	0.14257023
123	0xbd647b20	-0.055781484
124	0x3e55d84c	0.20883292
125	0x3c004920	0.007829934
126	0xbe3e0681	-0.18557169
127	0x3e3409e8	0.17581904
128	0xbdc9b6aa	-0.098492935
129	0xbe1c3d4a	-0.15257755
130	0x3dc440c0	0.095826626
131	0x3e54705c	0.20745987
132	0xbe04a5e2	-0.12953904
133	0xbe3ae1ed	-0.18250246
134	0x3d3166f0	0.04331106
135	0xbe0f8cb5	-0.14018519
136	0xbe0ebc62	-0.1393905
137	0xbd91063c	-0.07081267
138	0x3d9a2f8c	0.075286
139	0xbe4ea25c	-0.20179123
140	0xbe3a3953	-0.1818593
141	0xbcbe8f90	-0.023261815
142	0x3d044688	0.032293826
143	0xbdd56388	-0.10419375
144	0x3d935c34	0.07195321
145	0x3c9d3a80	0.019192934
146	0xbd9a1386	-0.07523255
147	0x3e09e570	0.1346643
148	0xbd7fa120	-0.06240952
149	0x3e3d8cc4	0.18510729
150	0xbde827b2	-0.11335696
151	0xbe4d8e4d	-0.20073815
152	0x3de13f84	0.10998443
153	0xbe16e4ff	-0.14735793
154	0xbdeb3264	-0.114842206
155	0xbdb86622	-0.09003855
156	0x3e5e3838	0.21701133
157	0xbe61c4a4	-0.22047669
158	0xbe52f900	-0.20602798
159	0x3e3cd72a	0.18441454
160	0x3d7af50b	0.061268847
161	0xbe41541e	-0.18879744
162	0xbe32afe6	-0.17449912
163	0x3d19bd92	0.037534304
164	0x3b05b432	0.0020401594
165	0xbdfaadfd	-0.12240217
166	0xbe07aaa6	-0.13248691
167	0xbe3a3f2e	-0.18188164
168	0xbe2f764c	-0.1713497
169	0x3d08fcc3	0.033444177
170	0xbe5a8849	-0.21341051
171	0x3e20df90	0.15710282
172	0xbde273e1	-0.110572584
173	0x3d4058f1	0.04695982
174	0x3dec6b48	0.115439
175	0x3d87787b	0.06614777
176	0x3e49a308	0.19691098
177	0x3c99b3b0	0.01876244
178	0xbdea4918	-0.11439723
179	0xbe451b23	-0.19248633
180	0xbd53b72e	-0.051688366
181	0xbdae2020	-0.08502221
182	0xbdcd6f4b	-0.10030993
183	0x3db657b9	0.089034505
184	0xbdae1acb	-0.08501204
185	0xbcbbf329	-0.022943096
186	0xbe18ea21	-0.14933063
187	0xbb166297	-0.0022946948
188	0x3e08d4b5	0.13362391
189	0xbe3370cf	-0.17523502
190	0x3d37c402	0.044864662
191	0xbcb640d4	-0.02224771
192	0xbda05dae	-0.07830368
193	0x3e61ff2c	0.22069997
194	0x3d93a981	0.07210065
195	0xbdb27ccd	-0.0871521
196	0x39b8d4fc	0.000352539
197	0x3d6aa2d4	0.05728419
198	0xbe48824d	-0.19580956
199	0xbe5786f8	-0.2104758
200	0x3da9942c	0.08280215
201	0x3e2d2aec	0.16910905
202	0xbdc89ff4	-0.09796134
203	0x3d8a0cf8	0.06740755
204	0xbe223d02	-0.15843585
205	0xbd91929a	-0.0710804
206	0x3d292bf0	0.041301668
207	0x3e1b785c	0.15182632
208	0xbbcbac00	-0.0062155724
209	0x3e492032	0.19641188
210	0x3e3ae1ba	0.1825017
211	0xbd07f628	-0.033193737
212	0x3d5d1cb0	0.053982437
213	0xbdf981e5	-0.121829785
214	0x3d816958	0.06318921
215	0x3d1fa580	0.038976192
216	0x3e643f5a	0.22289792
217	0x3e3adf0c	0.18249148
218	0x3bf3bba0	0.007438138
219	0xbe648bb9	-0.22318925
220	0x3e4ae088	0.19812214
221	0xbdfbc4b5	-0.12293378
222	0xbd57b58a	-0.052663364
223	0x3e39a500	0.18129349
224	0x3e26cdea	0.16289487
225	0xbe030bae	-0.12797424
226	0x3dc63413	0.09677901
227	0xbdc6de74	-0.09710398
228	0xbdff1599	-0.12455291
229	0x3da42393	0.08014598
230	0xbe406ef8	-0.18792331
231	0xbd903cca	-0.070428446
232	0xbdbece0f	-0.09316646
233	0x3e055afc	0.13022989
234	0xbd3a459e	-0.04547655
235	0x3dfeac71	0.12435234
236	0x3df0bd14	0.11754814
237	0x3de07636	0.10960047
238	0x3c60dbc3	0.01372427
239	0x3c1dca57	0.009630761
240	0x3dd606a4	0.10450485
241	0x3e2ab75b	0.16671507
242	0x3e717f36	0.23583683
243	0x3dd15fe7	0.1022337
244	0x3bab943f	0.005236178
245	0xbd995f65	-0.07488898
246	0xbe202018	-0.15637243
247	0xbd6cd1ef	-0.057817396
248	0x3dd382d6	0.10327689
249	0xbc92885f	-0.017887292
250	0xbd8afaa5	-0.06786088
251	0xbd8b8279	-0.06811995
252	0x3d0ae736	0.033911906
253	0x3c9948e1	0.01871151
254	0xbdc19931	-0.09453047
255	0x3dcefa28	0.10106307

fc1.bias f4 [64]
0	0xbd53c2ae	-0.051699333
1	0x3d82f3a8	0.0639413
2	0x3e6eecf3	0.23332576
3	0xbe2070fe	-0.15668103
4	0x3dd447d3	0.10365262
5	0xbe31189d	-0.17294545
6	0x3da07e70	0.07836616
7	0x3de7f478	0.113259256
8	0x3e1c4ffa	0.15264884
9	0xbe327997	-0.17429195
10	0x3e64bed0	0.22338414
11	0x3c8dc7f6	0.017307263
12	0xbd87f88e	-0.06639205
13	0xbda0a3f2	-0.0784377
14	0xbd1a52eb	-0.037676733
15	0x3d984a11	0.07436002
16	0x3e0d4c10	0.13798547
17	0xbcedcbf1	-0.02902791
18	0x3e450736	0.19241032
19	0xbe23509f	-0.15948723
20	0xbd92cf19	-0.07168407
21	0x3e50e0b1	0.20398213
22	0x3db7add3	0.08968701
23	0x3e304dd1	0.17217185
24	0x3e5143d2	0.20436028
25	0xbdb6719e	-0.089083895
26	0x3cab937e	0.020944353
27	0x3df2edbb	0.1186175
28	0xbd9a885c	-0.0754554
29	0xbe259bcd	-0.16172715
30	0x3e27f1b0	0.1640079
31	0xbe1c7f42	-0.1528292
32	0x3de25ea0	0.110532045
33	0x3c8b61e2	0.017014448
34	0x3b770a40	0.0037695318
35	0x3e17535e	0.14777896
36	0x3e0697d9	0.13143863
37	0xbe4b9c1b	-0.19883768
38	0xbd753658	-0.05986628
39	0xbe1f5303	-0.1555901
40	0xbe260fe1	-0.16216995
41	0x3c0b1c46	0.008490628
42	0xbe664dd1	-0.22490622
43	0x3e18991e	0.1490216
44	0x3e4ea6b5	0.20180781
45	0xbd596f30	-0.053084552
46	0xbdff1f97	-0.12457197
47	0xbe4fb095	-0.20282204
48	0x3d4f1200	0.050554276
49	0xbe63ae15	-0.22234376
50	0xbe0f63af	-0.1400287
51	0x3e6152fb	0.22004311
52	0x3e21052c	0.15724629
53	0x3c6b5a7b	0.014364834
54	0x3e1108e4	0.14163548
55	0xbe45aedc	-0.19304985
56	0xbdfe0349	-0.1240297
57	0x3b340db7	0.0027473995
58	0x3d6521c2	0.055940397
59	0x3ca1ff06	0.019774925
60	0x3e63eb56	0.22257742
61	0xbe1c7d1c	-0.152821
62	0x3e12176a	0.14266744
63	0xbcd3b4f8	-0.025843129

fc2.weight f4 [5, 64]
0	0xbcffc05a	-0.03121965
1	0xbd0813fc	-0.033222184
2	0x3d446bcb	0.047954362
3	0xbdc5f511	-0.09665883
4	0xbcef2773	-0.029193616
5	0xbd1e7064	-0.038681403
6	0xbd495e90	-0.049162447
7	0xbd54e9ec	-0.051980898
8	0x3dd64cae	0.10463844
9	0x3c0946cf	0.0083786985
10	0xbde4520c	-0.11148462
11	0x3c33e48b	0.010979782
12	0xbdf2d7dd	-0.11857579
13	0x3da1ad98	0.078944385
14	0x3c88f7e8	0.016719773
15	0x3db007bb	0.085952245
16	0x3d556790	0.052100718
17	0xbd8998d9	-0.067186065
18	0xbdbe31a4	-0.09286812
19	0xbdb60876	-0.088883325
20	0xbd65639c	-0.056003198
21	0xbdf06458	-0.11737889
22	0xbbf8ed3a	-0.007596639
23	0x3d044444	0.032291666
24	0x3bd2ed17	0.0064369547
25	0x3c5ff270	0.013668641
26	0x3ca73db9	0.020415174
27	0x3d8d4c66	0.068993375
28	0xbc9628f8	-0.018330082
29	0xbcb73058	-0.02236192
30	0x3db7a3f2	0.08966817
31	0xbddf9f7e	-0.109190926
32	0xbd939eaf	-0.07208001
33	0x3d74b114	0.059739187
34	0xbd937cc8	-0.072015345
35	0x3d3230e3	0.043503653
36	0x3dd4f7f2	0.10398854
37	0x3c4966e0	0.012292594
38	0x3dc9cfe4	0.09854105
39	0x3d0f0e43	0.03492571
40	0xbdeba703	-0.11506464
41	0x3d48ddb3	0.049039554
42	0xbab1a372	-0.0013552739
43	0x3cfa6488	0.030565515
44	0xbe2b1bc0	-0.16709805
45	0x3ca19860	0.019725978
46	0xbdb085ec	-0.086192936
47	0x3da1e753	0.0790545
48	0x3d98a0c2	0.07452537
49	0x3dbc8256	0.09204547
50	0x3d756e40	0.059919596
51	0xbd34597f	-0.044030663
52	0x3dade1a0	0.084903
53	0xbdc6f442	-0.09714557
54	0x3de4317c	0.11142251
55	0xbd9fc824	-0.07801846
56	0xbd42010b	-0.047364276
57	0xbdbaec51	-0.09127105
58	0x3dbb484e	0.091446504
59	0xbe051da9	-0.12999596
60	0xbda08160	-0.07837176
61	0x3d110160	0.035401702
62	0x3d5ebf20	0.05438149
63	0x3db07617	0.08616274
64	0x3d7fc9c1	0.062448267
65	0xbd521cf4	-0.051297143
66	0xbd8f4c54	-0.0699698
67	0xbd9cc000	-0.076538086
68	0x3ce6fb0f	0.028195886
69	0xbc930070	-0.017944545
70	0xbd27d200	-0.040971756
71	0x3dfc922c	0.123325676
72	0xbd4be4de	-0.04977881
73	0xbd34a356	-0.04410108
74	0x3da8bf6e	0.08239637
75	0xbc6727e1	-0.014108629
76	0xbe0086ed	-0.1255147
77	0x3d8913ac	0.06693205
78	0xb9eab456	-0.0004476632
79	0x3c8d28ce	0.017231371
80	0x3cc1078c	0.023563169
81	0x3da87245	0.0822492
82	0x3d62201c	0.055206403
83	0xbdf96710	-0.12177861
84	0xbe209c9b	-0.1568474
85	0x3db0d65f	0.08634638
86	0x3dd87d7b	0.105708085
87	0xbdf9e260	-0.12201381
88	0x3cedd5a7	0.029032541
89	0x3d5e0798	0.05420646
90	0xbdbe9b07	-0.09306913
91	0x3d8877b6	0.06663458
92	0xbdb826ed	-0.089917995
93	0xbd969114	-0.0735189
94	0x3deff2de	0.11716245
95	0xbe0c74c4	-0.13716418
96	0xbdf9f34b	-0.122046076
97	0xbdbb0c99	-0.09133262
98	0x3d17da18	0.037073225
99	0x3d7bdb83	0.06148864
100	0xbc101a83	-0.008795383
101	0x3d8a7fb2	0.06762637
102	0x3d565a9c	0.052332506
103	0xbd81e4cc	-0.06342468
104	0xbc6ba872	-0.014383422
105	0xbd9af03e	-0.07565354
106	0xbb781001	-0.0037851336
107	0x3daf0d7a	0.08547492
108	0x3d7f0072	0.062256284
109	0xbd11825c	-0.03552471
110	0x3d9fe964	0.078081876
111	0x3c6f39f7	0.014601222
112	0x3dad4f02	0.08462335
113	0x3da167e7	0.07881146
114	0x3d2b8158	0.0418714
115	0xbd2acc54	-0.04169877
116	0xbe0b07a5	-0.13577135
117	0x3d0eca29	0.034860764
118	0xbdcc13f4	-0.09964743
119	0x3d98c130	0.074587226
120	0xbdc5d0ab	-0.09658941
121	0x3d965515	0.07340447
122	0xbd1f7b7c	-0.038936123
123	0x3dcb3ba9	0.09923489
124	0xbc89726c	-0.016778193
125	0xbdcd54be	-0.10025929
126	0xbda3d5a4	-0.07999733
127	0x3c60b660	0.013715357
128	0x3c81b336	0.015832525
129	0xbd981d72	-0.07427491
130	0xbdf218e5	-0.118211545
131	0x3daffbc1	0.0859294
132	0xbde83599	-0.11338348
133	0xbdbb0dde	-0.09133504
134	0x3d63710c	0.05552773
135	0x3da8ef1c	0.082487315
136	0x3ccb75f7	0.024836523
137	0x3d33c46a	0.043888487
138	0x3d058920	0.032601476
139	0xbdd9b624	-0.10630444
140	0xbdf6bcd8	-0.12047738
141	0xbdd4efe0	-0.10397315
142	0xbb2c1b97	-0.0026261562
143	0x3dcd5bec	0.10027298
144	0x3d754d4d	0.059888173
145	0x3d96572b	0.07340845
146	0xbde5e3c2	-0.11225082
147	0x3d10df62	0.035369284
148	0x3d9ed4d1	0.07755435
149	0x3bc80fc0	0.006105393
150	0x3daecc30	0.085350394
151	0xbd3f72a8	-0.046740204
152	0x3dc91e6b	0.09820255
153	0x3df9fdfa	0.12206645
154	0x3c347130	0.011013314
155	0xbdf6b823	-0.1204684
156	0xbd39973a	-0.045310237
157	0xbd5145cc	-0.051091954
158	0x3c9de1c0	0.019272685
159	0x3da01f3a	0.07818456
160	0xbdadf3ef	-0.08493792
161	0xbdff5c66	-0.124687955
162	0x3dc33330	0.095312476
163	0x3d58746d	0.052845407
164	0xbde3952c	-0.11112437
165	0x3db1d924	0.086839944
166	0xbd7b5090	-0.061356127
167	0xbd144441	-0.036197904
168	0x3d2f6314	0.042819098
169	0x3dd25a3b	0.10271116
170	0x3d05450f	0.032536563
171	0x3b83b120	0.0040189177
172	0xbd83d45b	-0.06436988
173	0x3d970d80	0.07375622
174	0xbcb4f188	-0.022087827
175	0xbd587181	-0.05284262
176	0x3dfc686a	0.12324603
177	0x3d82836a	0.063727215
178	0xbd6b7a6c	-0.057489797
179	0x3d8f9112	0.07010092
180	0xbda258ff	-0.07927131
181	0xbd4d6b8f	-0.050151404
182	0x3c633550	0.013867691
183	0xbdad609f	-0.08465695
184	0x3d23fe62	0.04003752
185	0x3dd7f708	0.10545164
186	0x3d642a5c	0.05570446
187	0x3cb2087d	0.021732563
188	0xbd1a99ce	-0.037744336
189	0xbdb83bc4	-0.089957744
190	0x3df9d9b6	0.12199728
191	0xbcd818e5	-0.026379058
192	0xbb31202a	-0.0027027228
193	0xbde1f192	-0.11032404
194	0x3aa9ee7b	0.001296475
195	0xbb96fff5	-0.004608149
196	0xbd8f6bf6	-0.07003014
197	0xbd41b4ec	-0.04729168
198	0xbdced010	-0.100982785
199	0xbc659530	-0.01401262
200	0x3dae87e8	0.08522016
201	0xbdc8a7d6	-0.09797637
202	0x3da9befa	0.08288379
203	0x3dbb98c4	0.09159997
204	0xbbfba3b6	-0.007679428
205	0xbdac7bb2	-0.084220305
206	0x3d379c4a	0.044826783
207	0x3daf5464	0.08561018
208	0xbd580bbd	-0.05274557
209	0xbcc0df0a	-0.023543853
210	0xbdbf5706	-0.0934277
211	0xbdaa3264	-0.083103925
212	0x3ce07b27	0.027402474
213	0xbd365546	-0.044514917
214	0xbdbcf7e9	-0.092269726
215	0xbd8a4992	-0.06752314
216	0x3ddfbef8	0.10925096
217	0xbd561548	-0.05226639
218	0xbd807cb2	-0.06273784
219	0xbbfdfcf7	-0.007751103
220	0xbe02d7eb	-0.12777679
221	0xbd09ba18	-0.03362474
222	0x3d1fea7c	0.03904198
223	0xbd6b31d2	-0.05742056
224	0x3d352106	0.044220947
225	0xbc9e9743	-0.019359237
226	0x3d96f3f0	0.07370746
227	0x3be9a525	0.0071302825
228	0x3dc660ae	0.09686409
229	0xbdd75434	-0.10514107
230	0x3d3aa300	0.045565605
231	0xbc953f24	-0.018218584
232	0xbcbb3944	-0.022854455
233	0xbb3608f7	-0.002777634
234	0x3d34e07e	0.044159405
235	0xbd8723be	-0.06598614
236	0xbd69a996	-0.057046495
237	0xbda8173e	-0.08207558
238	0xbd5f9c78	-0.05459258
239	0xbd34cb40	-0.044139147
240	0x3df662e6	0.12030582
241	0xbd9f333b	-0.07773443
242	0xbd344b78	-0.044017285
243	0x3dc14cda	0.094384864
244	0x3dc36f17	0.09542673
245	0xbdd10f4e	-0.10207997
246	0xbd90afb6	-0.07064764
247	0x3d878e73	0.06618967
248	0xbd8ac0a8	-0.067750275
249	0x3dbb4354	0.09143701
250	0x3b5d1463	0.0033734075
251	0xbda01c61	-0.07817913
252	0x3ca1dd0a	0.01975872
253	0xbd8c06f6	-0.06837265
254	0x3ded6274	0.11591044
255	0x3cb77a6d	0.022397244

fc2.bias f4 [5]
0	0x3d2b3674	0.041799977
1	0x3dad0724	0.084486276
2	0xbddec647	-0.10877662
3	0xbc8f296c	-0.017475806
4	0xbe1b670d	-0.1517603
