models/gdn_model.pth (torch_old, 6247 bytes, 6 tensors)

feature_means f4 [13]
000000 cd cc cc 30 00 00 00 00 cd cc cc b1 cd cc cc 31
       1.4901161e-09 0.0 -5.9604646e-09 5.9604646e-09
000010 cd cc 4c 31 00 00 e0 b1 00 00 00 00 cd cc 0c b2
       2.9802323e-09 -6.519258e-09 0.0 -8.195639e-09
000020 cd cc cc b1 cd cc cc 31 cd cc cc b1 33 33 33 b2
       -5.9604646e-09 5.9604646e-09 -5.9604646e-09 -1.0430813e-08
000030 cd cc cc 30
       1.4901161e-09

feature_stds f4 [13]
000000 34 ff b5 3e 97 fe a2 3e ca 7b 98 3e dc b6 ac 3e
       0.35546267 0.31834862 0.29781944 0.3373326
000010 a4 63 85 3e 6a 8d 97 3e c5 7d c5 3e 93 b9 88 3e
       0.26052582 0.29600078 0.38572517 0.26704082
000020 6c 68 b2 3e ac 2e 82 3e 27 71 d4 3e e6 a2 a6 3e
       0.34845293 0.25426233 0.41492578 0.32546157
000030 c8 35 a8 3e
       0.32853532

fc1.weight f4 [64, 13]
000000 e5 6d 02 be 71 25 a6 bd e6 88 80 3e 49 a4 1e be
       -0.12737234 -0.0811261 0.25104445 -0.15492357
000010 67 11 39 be 39 af 57 be 0f df 5f 3e 5a 53 f4 bd
       -0.18073045 -0.21062936 0.21862434 -0.119299605
000020 3b d3 5f 3e 63 67 fc 3d d3 76 96 3d 86 ac 71 3e
       0.21857922 0.12324407 0.07346883 0.23600969
000030 c3 9a cd 3d 62 0e 3e be fb f7 88 3e f1 15 70 be
       0.10039284 -0.18560174 0.26751694 -0.2344587
000040 0c a7 eb 3d ee 65 91 3e 39 bd 33 be 39 1e 93 3c
       0.11506471 0.2839808 -0.17552651 0.017958747
000050 6f 0a 36 3e 4a da 8d 3e f3 24 87 3e 8f c6 96 3e
       0.17777418 0.27705604 0.26395378 0.29448363
000060 59 73 50 3e 82 5e 96 be c7 6e 39 bd bc bd 94 3d
       0.20356502 -0.2936898 -0.04527166 0.072627515
000070 6b 07 27 bd 27 d7 31 3e 90 4e ca bc cd 29 7f be
       -0.04077856 0.1736723 -0.024695665 -0.2491829
000080 14 43 33 bc e3 5f d4 bd a2 64 15 be d2 5c 16 be
       -0.010941286 -0.103698514 -0.1458917 -0.14683846
000090 7b d5 30 be b6 9f 90 3c 2e fa 2a be cf 9b 57 be
       -0.17268936 0.017654281 -0.16696998 -0.2105553
0000a0 97 45 9e 3d 34 26 8e 3e c6 90 e1 3d e6 59 b7 3b
       0.07728117 0.27763522 0.110139415 0.0055954335
0000b0 b7 57 30 be 32 0c 47 be 8f 57 5e 3e 76 9f 3e be
       -0.1722096 -0.19438246 0.21713088 -0.18615517
0000c0 88 e3 28 bd 02 56 6f be 40 1f da 39 84 49 2d bd
       -0.041232616 -0.23372653 0.00041603483 -0.042306438
0000d0 11 9b 41 3e 1f 83 4d 3e 56 11 28 be e9 b5 17 3e
       0.1890681 0.2006955 -0.16412863 0.14815487
0000e0 88 e5 5f 3e c2 59 fd bc 71 b0 ec 3d eb 49 67 3e
       0.21864903 -0.030926589 0.11557091 0.22586791
0000f0 bc 57 51 be 2d d0 62 be 16 3d 22 be 31 41 4f be
       -0.20443624 -0.22149725 -0.15843615 -0.20239712
000100 4d b8 29 3e 3a 25 c1 bd 5c dc b9 bd f7 16 13 bd
       0.16574211 -0.094309285 -0.09075233 -0.035910573
000110 68 40 ff bd aa 78 06 bd bf da 8b 3e 27 52 50 3e
       -0.124634564 -0.032829918 0.27315328 0.20343839
000120 2e d8 3f 3e e3 ac f6 bc d5 46 32 3e 10 01 2d 3e
       0.1873481 -0.030111736 0.17409833 0.16894937
000130 14 20 b5 3d 2f ea f6 bb af 84 e4 3b 97 60 5d be
       0.08844009 -0.007535241 0.006973825 -0.21618877
000140 02 c1 57 be 14 85 6c 3e 04 a2 45 3e 26 ee 30 3e
       -0.2106972 0.2309764 0.19300085 0.17278346
000150 13 c9 11 be 06 c1 40 3e a6 8a 1b 3e b5 2a 2a 3e
       -0.1423686 0.18823633 0.15189609 0.16617854
000160 cc 0a 4c be de 1c dd 3d 95 76 7e bd 0c f9 5f bd
       -0.19925994 0.107965216 -0.062124807 -0.05468087
000170 53 a7 4e 3e d6 44 f6 3b 6b 5c a2 3d e7 8a cd 3d
       0.20181017 0.00751553 0.079277836 0.10036259
000180 12 f4 a0 be 6f 6d 6b be d9 7a 5a be 43 68 5a 3d
       -0.3143621 -0.22990964 -0.21335925 0.053322088
000190 cc 2d 64 be 45 fd 54 3e 51 c5 fa bd 95 40 a1 3c
       -0.22283095 0.2079974 -0.12244666 0.019684115
0001a0 58 96 6c bd 7b 7d 8a be 6a d7 ef bc 2f 38 3b 3e
       -0.057760566 -0.2704886 -0.029277522 0.18283151
0001b0 10 93 91 3e ae 88 3d bd a8 3e 15 be 32 e3 0a be
       0.28432512 -0.046272926 -0.14574683 -0.1356323
0001c0 7f a9 81 3c 20 91 11 3e fc cc 93 be d3 c3 28 be
       0.015827892 0.14215517 -0.28867328 -0.16480951
0001d0 e9 2f 9e be e8 eb 34 3e 97 2c 6e 3c f7 7d 44 3e
       -0.30895928 0.17668116 0.014536998 0.19188677
0001e0 26 3a ff 3c 19 60 22 3e a4 05 37 be 50 48 2a 3d
       0.031155657 0.15856971 -0.17873245 0.04157287
0001f0 df bc 3a be 3e f1 ef 3c 51 5a 89 3e 13 e0 a3 3d
       -0.18236111 0.029289838 0.26826718 0.08001723
000200 a2 83 35 be 12 02 76 3e 2f 19 20 3e d4 c2 a3 3e
       -0.17725995 0.24024227 0.15634607 0.3198458
000210 e8 4c d0 bd a3 7c 92 be d1 43 04 3e 55 07 4d be
       -0.10170919 -0.28610715 0.12916495 -0.20022328
000220 2e 7d dd 3d 7a cb ee bd f4 d2 2b be 55 4d cc bd
       0.10814892 -0.11659904 -0.16779691 -0.099756874
000230 07 03 32 3e d2 a3 e5 3c e8 c8 3d 3e db 3a 42 3d
       0.17383967 0.028032217 0.18533671 0.04741941
000240 72 9f d9 3b 1d 3b 56 3e 10 9a 54 3e 36 70 27 3e
       0.006641322 0.20920987 0.20761895 0.16351399
000250 c2 5b cd 3d 10 98 96 3d e0 81 45 bc d4 4c 51 be
       0.10027267 0.07353222 -0.01205489 -0.20439464
000260 da 0e a9 3c 18 f1 3d 3e ed 8c e5 3d 51 44 af 3d
       0.020636965 0.18549001 0.1120852 0.08557952
000270 99 4d 04 3e 2c a1 43 3c a5 96 d3 3d 1e 1d a0 3d
       0.12920226 0.011940282 0.103314675 0.07818054
000280 24 86 a4 3e b0 28 95 3c cd 48 42 3d ea d9 1b 3a
       0.3213359 0.018207878 0.04743271 0.00059452525
000290 d2 84 5a 3e 8e 27 a5 be 26 ee d3 3d f4 66 a5 be
       0.2133973 -0.3225674 0.103481576 -0.3230511
0002a0 09 8b 96 3e 2f 29 44 be a0 89 68 be a0 ec 55 3d
       0.2940295 -0.19156335 -0.2270875 0.052227616
0002b0 3b e0 55 bc 62 a5 4a 3d e0 d2 96 3e 1d cb 85 3e
       -0.013053949 0.049474128 0.2945776 0.26131526
0002c0 6e e0 a8 be 41 a0 a4 3e 30 32 97 bd 73 60 9c be
       -0.32983726 0.32153514 -0.073826194 -0.30542335
0002d0 d9 0d 0b 3e 21 7d f1 bd ff db 0d 3e fa 9f a9 3c
       0.13579501 -0.117914446 0.13853453 0.020706166
0002e0 cf 16 6a 3e ac 3b eb bc a2 e8 46 3e a5 18 a5 3e
       0.22860263 -0.028714977 0.1942468 0.32245365
0002f0 a4 99 51 3e 35 9c b9 bd d6 bd 95 3e 58 82 0c 3e
       0.20468765 -0.09062997 0.29246396 0.13721597
000300 65 40 a7 be 8c 20 01 3e 1a a7 89 be 50 e5 21 3e
       -0.32666317 0.12610072 -0.268853 0.15810132
000310 bb 2f 94 ba e9 c6 1a be d4 cc bc 3d 1f cc 94 be
       -0.0011305729 -0.1511494 0.09218755 -0.29061982
000320 65 4f 3e 3e 21 69 06 bd 3f 1c 07 3d 5c c1 fd 3c
       0.18584974 -0.032815102 0.032985922 0.03097599
000330 0a 0e bd 3c df d8 01 3e a8 b4 e9 bd e4 84 2d bd
       0.023077983 0.12680386 -0.114114106 -0.042363063
000340 fe d4 69 be ab 2d a8 3e 70 52 da 3c 65 c1 c2 3d
       -0.22835156 0.32847342 0.026650637 0.09509543
000350 2d 7f 5e be 4e fd 85 be a6 a1 6b 3e b3 45 1e 3d
       -0.21728201 -0.2616982 0.23010883 0.03864069
000360 2f 22 b1 3c 57 8c 35 bd fd 03 b9 bd e5 42 8b bc
       0.021622745 -0.04432329 -0.09033964 -0.016999671
000370 42 40 5f 3e 57 5d 59 3e fa c5 82 bd 85 a3 3e 3e
       0.21801856 0.21227013 -0.06385417 0.18617065
000380 d8 a2 79 be 98 1a db bc 60 27 6b 3e b6 5b 17 bd
       -0.24378526 -0.02674608 0.22964239 -0.036952697
000390 d7 80 80 3e 56 b8 61 3e bf 8d 1a bd 4c 08 78 be
       0.25098297 0.22042975 -0.037732836 -0.24221915
0003a0 81 04 86 bd 01 7b 1f bc 23 61 99 3e 41 33 8f be
       -0.06543828 -0.009733916 0.29956922 -0.2796879
0003b0 ad 5f b9 3d 99 28 d7 3d c9 d9 a0 3e 0f d9 0d be
       0.09051452 0.1050579 0.31416157 -0.13852333
0003c0 22 92 1a be 66 ba 81 3c 6b dc c9 bd 72 ed 96 be
       -0.15094808 0.015835952 -0.098564945 -0.2947803
0003d0 ad 25 5a bd fc bf 9f bd 26 0f 17 3e 55 e0 9b 3e
       -0.053258587 -0.0780029 0.14751872 0.3044459
0003e0 01 22 ae bb 13 c8 56 be 68 66 77 3e 60 f2 0a bd
       -0.005314112 -0.2097476 0.24160159 -0.033922553
0003f0 73 0f eb 3d 61 68 3f be ad 59 83 3e 11 ce c3 3d
       0.11477556 -0.18692161 0.25654355 0.095607884

fc1.bias f4 [64]
000000 2a f5 c2 bd 51 f3 3f bd fe b4 a8 3c d1 a8 96 bc
       -0.095194176 -0.046862904 0.020594116 -0.018391045
000010 9f 3d 33 be 04 b0 7d bd 47 7f 8e 3e e6 71 50 3e
       -0.17503975 -0.06193544 0.2783148 0.20355949
000020 ed a2 c8 3d 75 e6 4b be 93 4a 99 bc ab 28 dd 3d
       0.097967006 -0.19912131 -0.018712318 0.107987724
000030 72 97 94 bd b2 ee 06 be 21 02 04 3d e0 7f 14 3d
       -0.072554484 -0.13176993 0.032228593 0.036254764
000040 29 d5 2f bd 30 41 91 3c ef 95 88 bd bd 21 f7 bc
       -0.042927895 0.01773128 -0.066692226 -0.030167455
000050 5c f9 c2 3c 62 fd 8a be 08 75 89 bd 6c ed 64 3d
       0.023800544 -0.2714644 -0.06711775 0.055890486
000060 3d ab 78 be ed 35 a4 3e eb 6c 9a bc 1e a2 14 3e
       -0.24284072 0.32072392 -0.018850764 0.14514968
000070 76 fb 43 be 34 0e 6e 3d b7 19 17 be 10 92 2f 3d
       -0.19138893 0.058119014 -0.14755903 0.042863905
000080 e3 53 3d bd 30 80 84 be 34 50 a6 3e 12 52 f2 bd
       -0.04622258 -0.2587905 0.32483065 -0.1183206
000090 33 2e 47 be 65 db 1e be 2d 57 ac 3d dd a1 6f bd
       -0.19451217 -0.1551338 0.08415065 -0.058503974
0000a0 7c 7a 1e 3d 99 61 ce bd 5b c2 8a bd 0a 4f d0 bc
       0.03869103 -0.10077209 -0.067753516 -0.025428314
0000b0 45 89 c4 3d 05 82 4a 3e d5 a9 5b 3e 8a 5f 49 be
       0.095964946 0.19776161 0.21451505 -0.19665352
0000c0 ee b5 89 3e d5 dd 80 3e 63 3d d3 3d bd 0e 72 be
       0.26896614 0.25169244 0.10314443 -0.23638435
0000d0 26 6c 52 3d 9c 4d a3 3e 8b ee 0f bd 2d 8b 6a be
       0.05137267 0.3189515 -0.0351396 -0.22904654
0000e0 a4 74 62 3e 73 3b 5c 3e 3f 65 23 be c9 7d df 3d
       0.22114807 0.21507053 -0.15956591 0.109126635
0000f0 0b 1e 31 be d9 b5 09 be 26 65 82 be a8 ea aa bd
       -0.17296617 -0.13448276 -0.25467795 -0.083455384

fc2.weight f4 [6, 64]
000000 b7 e9 8c bd 52 10 76 3c 07 dc 15 bd b6 df a2 3d
       -0.06880515 0.0150185395 -0.036586788 0.07952826
000010 7b 7a 15 3c 19 ab 53 bc 4b 55 87 3c 7b 0b 45 3d
       0.00912344 -0.012919211 0.016520163 0.04810665
000020 91 e5 0a be 00 c3 b7 3d eb 6a 2b be 59 99 35 3c
       -0.13564135 0.0897274 -0.16740005 0.011083924
000030 a5 af f6 bd 35 b4 e1 bd 35 ad 13 3c 0a a8 4c 3d
       -0.1204522 -0.110207 0.009013464 0.049964942
000040 9a 26 82 bd 2e 25 2f 3d 16 0d 6c 3b b5 b0 31 be
       -0.06355019 0.042760067 0.0036018542 -0.17352565
000050 c7 ec 04 bd e8 d3 c9 3d f2 87 1e be 0e a9 88 bd
       -0.03245237 0.09854871 -0.15481547 -0.066728696
000060 e3 f1 9b bc 53 3b 0e be 54 26 89 3d 6b ec b6 bd
       -0.019036239 -0.13889818 0.06696764 -0.08931812
000070 08 aa 13 3d c5 04 0b 3d 41 d6 0f bd 25 86 93 3b
       0.036050826 0.033940095 -0.035116438 0.0045020753
000080 31 55 fb 3c 84 f6 ef 3d 33 36 fb bd cd 33 0b be
       0.03068027 0.11716941 -0.12266197 -0.13593979
000090 64 4f 3b 3d b4 dd b8 bd 07 aa 83 3d e4 d0 cb bd
       0.04573001 -0.090266615 0.064289145 -0.09951952
0000a0 90 be 94 bd 56 3a 3e bd 1a 1c a9 bd a6 26 c4 3c
       -0.072629094 -0.046442352 -0.08257313 0.02394421
0000b0 fe 5c 87 bd 44 bf 8f 3d b6 ec b2 3b 60 30 ce bd
       -0.06609534 0.07018903 0.005460347 -0.100678205
0000c0 31 73 15 be 76 71 e0 bb 09 dc 2c be fa 39 95 bd
       -0.14594723 -0.006849463 -0.16880812 -0.07286449
0000d0 b6 2f 9d bb c9 12 1d be 05 68 b7 3c 90 61 15 3c
       -0.0047969474 -0.15339197 0.022388468 0.009117499
0000e0 99 a7 ae 3c 5e d1 17 be bb 74 6b bd b0 51 43 3d
       0.021320151 -0.14825961 -0.05748437 0.047685325
0000f0 c8 e8 86 3c 23 1a 04 be 3c eb 84 bd 0b 3d 46 bd
       0.01646842 -0.12900595 -0.0649018 -0.04839806
000100 59 84 71 3d 72 c1 57 bb 29 30 90 bd 77 41 65 bc
       0.058964107 -0.00329217 -0.07040436 -0.013992659
000110 46 99 95 bd 41 8a 0e bc 08 36 21 bd fb 2d 21 be
       -0.07304625 -0.0086999545 -0.03935817 -0.15740196
000120 38 9b ba bd ae 97 6c bd 4b 4e 1f be c0 46 4a bd
       -0.09111637 -0.05776184 -0.1555721 -0.04938388
000130 0f ef c8 bd ad 4f b5 bd a1 4e 27 bd 66 1f 9d 3d
       -0.09811222 -0.088530876 -0.04084647 0.076720044
000140 76 90 f9 bd 07 07 be bd e7 ab 14 be 23 64 e9 bd
       -0.12185757 -0.09278684 -0.145187 -0.11396053
000150 82 6b 28 be b0 45 fd bc fd 90 89 bd a2 99 aa bd
       -0.16447261 -0.030917019 -0.067171074 -0.083300844
000160 be 6a 9a 3d d5 84 52 3c fd b1 a4 bd a2 ff 18 be
       0.07539891 0.012849052 -0.08041761 -0.14941266
000170 34 fc 42 3d 29 e8 b4 bd 5e 0f 1e be 70 52 42 3d
       0.0476038 -0.088333435 -0.1543555 0.0474419
000180 5b e1 76 3d a0 60 3c 3c 5a c6 50 3d 50 f2 19 be
       0.06027351 0.011497647 0.050970413 -0.15033841
000190 f4 da cd 3b 97 f8 12 bc 0b e5 b1 bd 3f 3f f3 3c
       0.0062822048 -0.008970401 -0.086862646 0.029693244
0001a0 56 44 c1 bd df 68 f2 bc 0c 2f 28 be 82 73 b2 bd
       -0.09436862 -0.029591022 -0.16424197 -0.087134376
0001b0 c5 22 12 be 8f c4 b0 bd 21 2f 4a bd fe bb ac 3d
       -0.14271076 -0.086312406 -0.049361352 0.08434294
0001c0 a2 8d 8b bd 8f 66 11 be aa e7 31 bd 54 7b 47 3d
       -0.06814124 -0.14199279 -0.043433823 0.0487016
0001d0 26 cf f6 bd f4 53 4e bd 18 34 64 3d cc bc dc bd
       -0.12051229 -0.050373033 0.055713743 -0.10778198
0001e0 0c e1 49 3d d1 2b eb bd c0 66 84 3b 56 e0 01 be
       0.049286887 -0.11482967 0.004040569 -0.12683234
0001f0 00 3d e0 3b de fa ba bd 30 de 35 3d d3 2c e6 bd
       0.0068432093 -0.0912988 0.044401348 -0.11239018
000200 4c c2 9f bd da 25 da bd 8d 43 39 3d b7 1a 7f 3c
       -0.07800731 -0.10651751 0.045230437 0.015570334
000210 46 91 8b bc 50 7c 4c 3d 3c 6d dd bc 21 41 61 3d
       -0.017037045 0.04992324 -0.027029626 0.054993752
000220 18 0e b8 bd 37 b8 a7 3c 7a fd 2a bd 5c 83 44 3d
       -0.08987063 0.020473583 -0.04174564 0.047976837
000230 6e 0e 06 be 83 31 29 be 47 2a 4f bd e2 52 09 be
       -0.13091442 -0.16522793 -0.05057743 -0.13410524
000240 cc f9 05 be e9 83 0e be da 14 46 bd 16 79 a4 bd
       -0.13083571 -0.13917507 -0.04835973 -0.08030908
000250 aa 25 5a bd 4e aa d6 3d 02 f6 8b 3d 09 58 64 3c
       -0.053258575 0.10481702 0.06834032 0.013937005
000260 40 62 a2 3d dd ad 90 bd 07 b9 da 3c 0d 59 95 bd
       0.07928896 -0.07064412 0.026699556 -0.07292376
000270 a0 23 c8 3b 02 50 1c be 60 02 da bd 14 1e 81 3d
       0.0061077625 -0.15264896 -0.10644984 0.06304565
000280 e6 b8 16 3d 2e fd e1 3d 3a 86 ff 3a c5 8e 85 3c
       0.036797427 0.11034618 0.0019494959 0.01630343
000290 1d d5 80 bd 77 06 43 bd a7 4d 8f bd 0e 84 00 ba
       -0.06290648 -0.047613587 -0.06997233 -0.000490249
0002a0 c2 29 09 be 28 72 0f 3d 92 95 9c bd 79 1b 34 3d
       -0.13394836 0.035020977 -0.07645716 0.043971512
0002b0 48 5b 24 3d d2 69 a4 bd 82 d0 6d 3d 0c 64 bb 3d
       0.040126115 -0.08027996 0.058060177 0.09149942
0002c0 e8 e9 8f bd 95 90 ae bd ec 7c 76 bd b8 8f cd bc
       -0.07027036 -0.085236706 -0.06017773 -0.025092945
0002d0 5e 81 a1 bd 1d 2c 28 be 44 89 6a bd cc c7 d7 bd
       -0.07886003 -0.16423078 -0.057259813 -0.10536155
0002e0 3c 67 fc bd 05 9f 0b be 5c 76 99 bd da ea 11 be
       -0.12324378 -0.1363488 -0.074932784 -0.14249745
0002f0 0c 4a 37 3d af d6 0a 3c e0 bb 94 bc 0f 2b 17 be
       0.04474835 0.008474036 -0.018155992 -0.1476252
000300 18 ea b4 bd e5 0d e1 bd 0a 7f 0d bd c5 22 9a bc
       -0.08833712 -0.10988978 -0.034544982 -0.018815408
000310 0c 0d 6a bb ad bc 78 3d 44 10 41 bd ec 11 02 be
       -0.0035713343 0.06072681 -0.047134653 -0.12702149
000320 e8 cc 02 3d 21 c8 05 bd 5a 0f cc bd 67 90 38 3c
       0.031933695 -0.03266156 -0.099638656 0.011264897
000330 40 9c dc bd 34 84 c4 3c ae 82 88 bd 84 84 d0 bd
       -0.1077199 0.02398882 -0.0666555 -0.10181525
000340 71 d6 11 3d 2a 78 7b 3d f5 5a e1 bd 2e 23 55 3d
       0.035604898 0.061393894 -0.11003677 0.052035503
000350 57 e0 19 be d8 30 6a bd 74 78 55 bd b7 27 07 be
       -0.15026985 -0.057175487 -0.052116826 -0.13198744
000360 28 b8 a0 3d d1 ee 1e be 0c 0e d4 bb dd f6 aa bd
       0.07847625 -0.15520789 -0.006471401 -0.08347867
000370 a8 1a 97 bd 69 a0 d2 bd 49 ec 30 be 7c 19 cf bd
       -0.07378131 -0.10284502 -0.17277636 -0.10112283
000380 87 aa 8b 3d bc ca 84 bd c8 e6 e8 bd e9 98 aa 3c
       0.06819635 -0.06483981 -0.11372143 0.020824866
000390 81 52 3f bd f9 8c 01 bd a5 e8 09 3d 21 3e 14 be
       -0.04670954 -0.031628583 0.033669133 -0.14476825
0003a0 a3 65 0f be 5c b6 d4 bd e0 41 87 bd 13 75 71 bd
       -0.14003615 -0.10386345 -0.066043615 -0.05894954
0003b0 fd e6 91 3d 05 01 81 bc 55 b3 c2 bd 0c 37 e8 3d
       0.07124136 -0.015747556 -0.09506861 0.11338624
0003c0 ed 8a d7 bd 3a 46 11 3d ba ca a5 bd dc c6 e7 bd
       -0.10524545 0.035467364 -0.08095308 -0.11317226
0003d0 22 09 19 bd da 81 93 bd b1 4e 9a 3b 2c a9 05 3d
       -0.037362225 -0.072025016 0.004709088 0.032632038
0003e0 09 d2 1b be 6f 5b 70 bd ee a5 ee bd 52 02 92 3d
       -0.15216841 -0.058680948 -0.11652742 0.07129349
0003f0 d2 da dd bd 97 0b ab bd 60 cf 93 bc 9e a8 c4 bd
       -0.10832752 -0.0835182 -0.01804322 -0.09602474

fc2.bias f4 [6]
000000 ae 03 86 3d f2 dd e8 bd fb 16 d8 bc d4 ac 1b be
       0.065436706 -0.11370458 -0.026378145 -0.15202647
000010 e8 d7 0e 3d 55 9e 3a bd
       0.034873873 -0.045561153
