models/gdn_model.pth (torch_old, 6247 bytes, 6 tensors)

feature_means f4 [13]
0	0x30cccccd	1.4901161e-09
1	0x00000000	0.0
2	0xb1cccccd	-5.9604646e-09
3	0x31cccccd	5.9604646e-09
4	0x314ccccd	2.9802323e-09
5	0xb1e00000	-6.519258e-09
6	0x00000000	0.0
7	0xb20ccccd	-8.195639e-09
8	0xb1cccccd	-5.9604646e-09
9	0x31cccccd	5.9604646e-09
10	0xb1cccccd	-5.9604646e-09
11	0xb2333333	-1.0430813e-08
12	0x30cccccd	1.4901161e-09

feature_stds f4 [13]
0	0x3eb5ff34	0.35546267
1	0x3ea2fe97	0.31834862
2	0x3e987bca	0.29781944
3	0x3eacb6dc	0.3373326
4	0x3e8563a4	0.26052582
5	0x3e978d6a	0.29600078
6	0x3ec57dc5	0.38572517
7	0x3e88b993	0.26704082
8	0x3eb2686c	0.34845293
9	0x3e822eac	0.25426233
10	0x3ed47127	0.41492578
11	0x3ea6a2e6	0.32546157
12	0x3ea835c8	0.32853532

fc1.weight f4 [64, 13]
0	0xbc0e9cf3	-0.008704412
1	0x3db4a579	0.08820624
2	0xbe60cf0b	-0.2195398
3	0xbd817d0a	-0.063226774
4	0xbe556bd8	-0.2084192
5	0xbcf7cb93	-0.030248439
6	0xbd471093	-0.04859979
7	0x3cd7c770	0.026340216
8	0x3bc6a4ff	0.0060621495
9	0xbe8fe8b5	-0.2810723
10	0xbe77c44f	-0.2419598
11	0x3c8499b3	0.01618657
12	0xbe32c548	-0.1745807
13	0xbd066b35	-0.032817084
14	0xbe3abd0a	-0.18236175
15	0x3e7dedf9	0.2479781
16	0xbe3632a0	-0.1779275
17	0xbe94cf70	-0.29064512
18	0xbe88f762	-0.26751238
19	0xbd0a2910	-0.033730567
20	0xbded660c	-0.115917295
21	0x3e7dc49f	0.24782036
22	0x3e63049b	0.22169726
23	0x3e6431c9	0.22284617
24	0x3e1fb993	0.15598135
25	0x3dd2b05b	0.102875434
26	0xbc2fc9e4	-0.010729287
27	0x3ea49834	0.32147372
28	0x3e785c42	0.24253944
29	0xbe9ff545	-0.31241813
30	0xbe917168	-0.28406835
31	0xbe94652e	-0.28983444
32	0x3ea044a5	0.31302372
33	0x3da58459	0.08081884
34	0x3dcedd49	0.101008005
35	0xbdcb1097	-0.09915274
36	0xbe994012	-0.29931694
37	0x3e5ebd34	0.21751863
38	0x3e6c3882	0.23068431
39	0x3e0c7e87	0.13720141
40	0x3c7ae4c5	0.015313332
41	0x3d0f163c	0.034933314
42	0x3c6e6dbf	0.014552533
43	0x3e0db8a2	0.13839963
44	0xbadd175f	-0.0016867927
45	0x3dd2ec2a	0.10298951
46	0xbd996dd1	-0.07491649
47	0xbe085dd9	-0.1331705
48	0x3e3818ea	0.17978254
49	0x3daf7960	0.08568072
50	0x3d7bbfaf	0.0614621
51	0xbd539a58	-0.051660866
52	0xbe1fa673	-0.15590839
53	0xbe0682a5	-0.13135774
54	0xbe8c58b4	-0.27411425
55	0x3d7249c0	0.059152365
56	0x3d9910b4	0.07473889
57	0x3d4b0db0	0.0495736
58	0xbc5eb080	-0.013591886
59	0x3e6ad24a	0.22931781
60	0x3e2c7afe	0.16843793
61	0x3dcc55a8	0.09977275
62	0xbde0db88	-0.10979372
63	0xbd8102ec	-0.062993854
64	0x3e836697	0.25664207
65	0x3e708d39	0.23491372
66	0x3e1dc14f	0.15405773
67	0x3da46578	0.08027166
68	0xbe051f1b	-0.13000147
69	0xbe159d26	-0.14610729
70	0x3d99fb52	0.07518639
71	0x3cf0acb9	0.029379236
72	0xbe454970	-0.19266295
73	0x3e980769	0.29693154
74	0x3e364f7f	0.17803763
75	0x3e03e715	0.1288112
76	0xbe1128c3	-0.14175706
77	0x3e67eb37	0.22648321
78	0xbe04ccc7	-0.12968741
79	0xbddcf2ba	-0.10788484
80	0x3d16c996	0.03681334
81	0xbd88b26f	-0.066746585
82	0xbcad0e04	-0.021124847
83	0xbe4e7922	-0.20163396
84	0xbe8e31a4	-0.27772248
85	0x3e8cb6d7	0.27483246
86	0xbe874bcb	-0.26425013
87	0x3e9d3272	0.3070255
88	0x3c72c1c8	0.014816709
89	0xbdddafce	-0.10824548
90	0x3e9fa199	0.31177977
91	0x3e89a97b	0.26887116
92	0xbe5c4f9e	-0.21514747
93	0xbe11e850	-0.14248776
94	0xbd8e0e5e	-0.06936334
95	0xbdeb327d	-0.11484239
96	0x3e880dbd	0.2657298
97	0x3e3820bc	0.17981237
98	0x3cf0a8e2	0.029377405
99	0xbe0936b6	-0.13399777
100	0xbd2cb57c	-0.042165264
101	0x3d8d5e8e	0.069028005
102	0xbd1071c4	-0.035264745
103	0xbe4e3faa	-0.20141473
104	0xbd04d1aa	-0.032426514
105	0x3e4514c9	0.1924621
106	0x3e92b00f	0.28649947
107	0x3d7461ab	0.059663456
108	0xbe965239	-0.29359606
109	0x3d56df0d	0.05245881
110	0x3ea9084b	0.3301414
111	0xbcdae9f5	-0.026722888
112	0x3e44b377	0.19209085
113	0xbdbf3f6d	-0.093382694
114	0x3e96ae67	0.29429933
115	0x3da6df68	0.0814808
116	0xbe8173df	-0.25283715
117	0xbe68716a	-0.22699514
118	0x3dfd1bf7	0.123588495
119	0x3dbd51ac	0.09244093
120	0xbdd5211a	-0.10406704
121	0x3e87f4a7	0.26553842
122	0x3e3a54e8	0.18196452
123	0xbd73c814	-0.05951698
124	0xbde268a9	-0.110551186
125	0xbd54832c	-0.051882908
126	0x3d064db5	0.03278895
127	0xbcd26c52	-0.025686417
128	0xbdaf7b23	-0.08568408
129	0x3e097e39	0.13427056
130	0xbde3a270	-0.11114967
131	0x3e34acd1	0.17644049
132	0xbe6c2b06	-0.23063287
133	0x3d18a06a	0.037262358
134	0xbdc19db2	-0.09453906
135	0x3d390490	0.045170367
136	0x3e728551	0.23683669
137	0x3e95d097	0.29260704
138	0x3df51f5d	0.11968873
139	0xbe819402	-0.25308233
140	0x3e4d8323	0.20069556
141	0xbdb96055	-0.09051577
142	0x3e8f7bfe	0.28024286
143	0xbe0fe609	-0.14052595
144	0xbe5c15a3	-0.21492629
145	0xbd6ca780	-0.057776928
146	0x3a3a5578	0.0007108073
147	0x3e6a6d0e	0.22893164
148	0x3c6f7e7d	0.0146175595
149	0x3e83fe63	0.2578002
150	0xbd57fd28	-0.052731663
151	0x3e1f19cb	0.15537183
152	0xbe2c17af	-0.1680591
153	0x3e51a4d3	0.20473032
154	0x3d37c631	0.044866744
155	0x3e495580	0.19661522
156	0x3e67fdb2	0.22655371
157	0xbd85c844	-0.06532338
158	0x3e4b7f3b	0.19872753
159	0x3e2965f4	0.16542798
160	0xbe92162d	-0.28532544
161	0x3deef9e8	0.116687596
162	0xbd75063e	-0.059820406
163	0xbe3465f2	-0.17617014
164	0xbd8590f4	-0.06521788
165	0xbdc1ccc7	-0.09462886
166	0x3e19e95a	0.15030423
167	0xbdcd50af	-0.10025155
168	0xb9bfa9a0	-0.0003655674
169	0xbdb01b6d	-0.08598981
170	0xbe9a4a64	-0.3013488
171	0xbc5a2782	-0.013315083
172	0x3cf20f96	0.029548448
173	0xbe08e953	-0.13370256
174	0xbe323f7f	-0.17407034
175	0x3e797221	0.24359943
176	0x3d933a48	0.07188851
177	0xbe556fa2	-0.20843366
178	0xbe34c2e7	-0.17652474
179	0xbe44b342	-0.19209006
180	0xbda975f3	-0.0827445
181	0x3e2a95db	0.16658728
182	0x3e836747	0.25664732
183	0xbe87947a	-0.26480466
184	0xbd473c57	-0.04864153
185	0xbe032b44	-0.12809473
186	0xbc50f12d	-0.012752813
187	0xbcb047b5	-0.021518568
188	0xbd3c1065	-0.045914073
189	0x3e01a317	0.1265987
190	0x3db17cdf	0.086663954
191	0xbd607d34	-0.054806903
192	0xbdb1bdcb	-0.08678778
193	0x3d7d605b	0.06185947
194	0xbd3ccc6c	-0.04609339
195	0xbe674a4e	-0.22586939
196	0x3e5a63f7	0.21327196
197	0x3dde5a04	0.10857013
198	0xbdbb5e33	-0.091488265
199	0x3e4cd5f8	0.20003498
200	0xbc314d99	-0.010821723
201	0xbd3ed633	-0.046590995
202	0x3e852c90	0.2601056
203	0x3e9807dd	0.296935
204	0xbe7d8faf	-0.24761842
205	0xbd76e345	-0.060275335
206	0xbdad0bcd	-0.084495164
207	0xbe34d4f1	-0.17659356
208	0x3e280477	0.16407953
209	0x3e8002a1	0.25002006
210	0xbd06102c	-0.032730266
211	0x3e840d44	0.2579137
212	0x3dc16789	0.09443576
213	0x3e12b00d	0.1432497
214	0x3e504cc5	0.20341785
215	0xbe7dbfa8	-0.24780142
216	0x3e31a542	0.17348197
217	0xbe6d6d68	-0.23186266
218	0x3e4fd16b	0.2029473
219	0x3db585f5	0.08863441
220	0xbccdafd2	-0.025108252
221	0x3e911533	0.28336486
222	0xbdf027a5	-0.117263116
223	0x3ea259f9	0.3170927
224	0x3e433ddc	0.19066566
225	0x3e03ea5f	0.12882374
226	0xbe6b0a1c	-0.22953075
227	0xbe1b4507	-0.1516305
228	0xbe0d0486	-0.13771257
229	0xbea31405	-0.3185121
230	0x3d66746f	0.056263383
231	0xbea681fb	-0.32521042
232	0x3dd38933	0.10328903
233	0xbbd31136	-0.0064412607
234	0xbcf4cc7f	-0.029882668
235	0xbe9ec5ef	-0.31010386
236	0x3e8a6713	0.27031764
237	0x3dd954a2	0.106118456
238	0xbda6a9da	-0.08137865
239	0x3ea48da9	0.32139328
240	0xbe8250b0	-0.25452185
241	0xbd4a5e96	-0.04940661
242	0x3df5d15f	0.12002825
243	0x3ea627d6	0.32452267
244	0x3e964e25	0.29356495
245	0xbd74c759	-0.059760425
246	0xbe814ebe	-0.25255388
247	0x3e0abd8b	0.13548867
248	0xbe8e9a18	-0.2785194
249	0x3e500f0a	0.20318237
250	0x3e04ce43	0.12969308
251	0xbeab5289	-0.33461407
252	0xbe415abe	-0.18882272
253	0xbd872e3a	-0.06600614
254	0x3d4723ef	0.048618253
255	0x3e381190	0.1797545

fc1.bias f4 [64]
0	0x3e20b430	0.15693736
1	0xbe172104	-0.14758688
2	0xbcfe26d8	-0.031024382
3	0xbe370129	-0.17871536
4	0xbe6cf4e3	-0.23140292
5	0x3e7f9bcc	0.24961776
6	0x3e153fb6	0.14575085
7	0x3ea9aa21	0.3313761
8	0xbcaa309c	-0.020775132
9	0xbc534aba	-0.012896234
10	0x3ddb2bd1	0.10701717
11	0x3e680569	0.22658314
12	0x3ea18add	0.31551257
13	0x3e09d32d	0.13459463
14	0xbe503f8d	-0.20336743
15	0x3e4e5521	0.20149662
16	0xbe4a567e	-0.19759557
17	0x3d23b3b9	0.03996632
18	0x3e8c1c11	0.27365163
19	0xbdb46eb7	-0.0881018
20	0xbe284cd6	-0.1643556
21	0xbcd185d9	-0.025576519
22	0xbe34a0e7	-0.17639504
23	0x3da14991	0.0787536
24	0x3db393a9	0.08768398
25	0xbc90efff	-0.017692564
26	0xbe8d65cd	-0.2761673
27	0x3e84856f	0.25883052
28	0x3e287806	0.16452035
29	0x3c99c9e8	0.018773034
30	0x3da1cfd3	0.079009674
31	0x3e03ab46	0.12858304
32	0x3d0e490d	0.034737635
33	0xbe3f271e	-0.18667266
34	0xbd0fdae8	-0.035120875
35	0xbe8cb99a	-0.27485353
36	0xbe21f3fd	-0.1581573
37	0x3e51f1d4	0.20502406
38	0xbdbcaec3	-0.09213021
39	0x3ad74f92	0.0016426912
40	0xbd2bae12	-0.041914053
41	0xbe3ab2d6	-0.18232283
42	0x3e243d8d	0.16039105
43	0x3e9dc3c3	0.30813417
44	0xbd30d521	-0.043172006
45	0x3d796b30	0.060893238
46	0x3cfef429	0.031122284
47	0x3ea7de31	0.32786706
48	0x3cd7a0c8	0.026321784
49	0x3df888f6	0.12135498
50	0x3e24896c	0.16068047
51	0x3dc9f609	0.098613806
52	0x3e4a98a9	0.19784798
53	0x3b5efef1	0.0034026469
54	0xbda9cf0c	-0.08291444
55	0xbd7544e7	-0.059880164
56	0x3e4c6ceb	0.19963424
57	0x3e742973	0.23843937
58	0xbe81dbd9	-0.25363043
59	0x3e24782d	0.16061468
60	0x3d6b2142	0.057404764
61	0x3e6742ba	0.22584048
62	0x3a11a77e	0.00055562693
63	0xbe4d9e56	-0.20079932

fc2.weight f4 [6, 64]
0	0x3c0ea46e	0.008706195
1	0xbdbbfd65	-0.091791905
2	0xbcee45c2	-0.029085997
3	0x3da8b12d	0.082369186
4	0x3cc93c40	0.024564862
5	0xbd49d8a6	-0.049278878
6	0xbdf5253a	-0.11969991
7	0x3d25fd71	0.040524904
8	0xbc31ae1b	-0.010844733
9	0xbdb41755	-0.08793513
10	0x3d56dd21	0.05245698
11	0x3d9e1b22	0.07720019
12	0xbe25d6fc	-0.16195291
13	0x3d552430	0.052036464
14	0xbd6ab932	-0.057305522
15	0xbd249203	-0.04017831
16	0x3d517e9a	0.051146127
17	0xbe31df8d	-0.17370434
18	0xbdf1d495	-0.11808125
19	0xbcbd32ab	-0.02309545
20	0x3dd382a2	0.103276506
21	0x3d2ebe57	0.04266199
22	0xbd60ff5a	-0.054931022
23	0xbe25740f	-0.16157554
24	0xbc7b8ac6	-0.01535291
25	0xbe21f0fb	-0.15814583
26	0x3c91baf8	0.017789349
27	0x3c51fc7d	0.012816546
28	0x3d9748cb	0.07386931
29	0xbc7be424	-0.015374217
30	0x3d02c2f2	0.031924196
31	0x3cb51207	0.022103323
32	0x3c3f7776	0.011686197
33	0xb85ace94	-5.216764e-05
34	0xbde98cd2	-0.114038125
35	0x3c4da22b	0.012550871
36	0xbdd4d1e5	-0.10391597
37	0x38937278	7.030828e-05
38	0xbdcb4c3e	-0.099266514
39	0x3d78d578	0.060750455
40	0xbe122646	-0.14272413
41	0xbd50959b	-0.050923925
42	0xbcc41c81	-0.023939373
43	0xbdb1b77b	-0.08677574
44	0xbe21069c	-0.15725178
45	0xbd8d0213	-0.06885161
46	0xbd513276	-0.051073514
47	0x3cb16328	0.021653727
48	0x3d79837b	0.060916405
49	0xbe1be256	-0.15223059
50	0xbe0b8145	-0.13623531
51	0x3c419d36	0.011817267
52	0xbd308e2e	-0.043104343
53	0x3d2856ba	0.041098334
54	0x39b3e424	0.00034311519
55	0xbcba3bd1	-0.0227336
56	0xbdd36674	-0.10322276
57	0xbdb29002	-0.087188736
58	0xbd857700	-0.06516838
59	0xbcdf76a8	-0.02727826
60	0x3c8b351a	0.016993094
61	0xbdc1374e	-0.09434377
62	0xbe16fc89	-0.14744772
63	0xbd99fb2a	-0.07518609
64	0xbda41303	-0.08011439
65	0xbd32ba9d	-0.043635
66	0xbd8d3634	-0.06895104
67	0xbb26862a	-0.0025409558
68	0x3cc9ed40	0.024649262
69	0xbd7b4ffd	-0.06135558
70	0xbe21e25f	-0.1580901
71	0xbd8b2129	-0.06793434
72	0xbdebdbc4	-0.11516526
73	0x3d95ac97	0.073083095
74	0xbdee9d12	-0.116510525
75	0xbdc88c45	-0.09792379
76	0x3d0cc249	0.034364972
77	0xbd12b2f2	-0.035815187
78	0x3d1114b1	0.035420123
79	0xbd7d1092	-0.06178338
80	0xbdaea75d	-0.08528016
81	0xbb39cdae	-0.0028351354
82	0xbdfd04b2	-0.12354411
83	0xbc1f8bee	-0.009737952
84	0x3dc2c91c	0.09511015
85	0xbd9d16fa	-0.07670398
86	0xbd7b6128	-0.061371952
87	0xbd50b00e	-0.05094915
88	0xbe116d39	-0.14201821
89	0x3d8f86a6	0.07008104
90	0xbd9479aa	-0.07249768
91	0xbe0ce1f2	-0.13758066
92	0x3c99ebab	0.018789133
93	0xbe183112	-0.14862469
94	0xbe3130a9	-0.17303719
95	0xbe087e6a	-0.13329473
96	0x3b94c8c1	0.0045405333
97	0xbc2028bd	-0.009775338
98	0xbdba88f6	-0.091081545
99	0x3b993491	0.004675456
100	0x3d7e3ac9	0.06206778
101	0xbd66e98e	-0.05637508
102	0x3d089d37	0.033353057
103	0xbe1e39c8	-0.1545173
104	0xbe315b09	-0.17319883
105	0xbd820a5c	-0.06349632
106	0x3d04f169	0.03245679
107	0xbe21bf4a	-0.15795627
108	0x3d8a8afa	0.06764789
109	0xbe054c7b	-0.13017456
110	0xbd918fd7	-0.071075134
111	0xbdf3e057	-0.11908024
112	0xbd6454e9	-0.05574504
113	0x3b9e11e8	0.004823912
114	0xbd333d40	-0.043759584
115	0xbdddaf08	-0.108244
116	0x3d56894a	0.052377023
117	0xbc27d7af	-0.010244294
118	0x3ba61e7c	0.005069552
119	0xbdfc5510	-0.12320912
120	0xbd82ef88	-0.06393343
121	0xbdc366d1	-0.09541095
122	0xbdc6e6fd	-0.09712026
123	0x3cee90b2	0.02912173
124	0xbe0e39bc	-0.13889211
125	0xbd8557b8	-0.06510872
126	0xbccc8acc	-0.024968527
127	0xbd2dc9d3	-0.042428803
128	0x3cf730f5	0.030174712
129	0x3d526dad	0.051374126
130	0x3d832cd1	0.064050324
131	0xbddff15f	-0.1093471
132	0x3ddd900a	0.10818489
133	0xbde016d7	-0.10941856
134	0x3d18aee2	0.037276156
135	0xbe095d50	-0.13414502
136	0x3d102551	0.035191838
137	0x3b823878	0.0039740168
138	0xbe303358	-0.17207086
139	0x3d6968cf	0.05698472
140	0x3d93f2ad	0.07224021
141	0x3ce0d479	0.027445065
142	0xbe273b02	-0.16331103
143	0xbd9f8b84	-0.07790282
144	0x3b590902	0.0033116941
145	0xbd297f66	-0.041381262
146	0xbe1e5ab1	-0.15464284
147	0x3d87a2b9	0.06622834
148	0x3d41b66f	0.047293123
149	0xbc116a3b	-0.008875425
150	0x3d387adf	0.045039054
151	0xbe01f6f8	-0.12691867
152	0xbcf7dfe2	-0.030258123
153	0xbddca628	-0.10773879
154	0x3bb86320	0.005627051
155	0xbcdeb9b2	-0.027188156
156	0xbe06e02e	-0.13171455
157	0xbe07160d	-0.13192005
158	0xbe1f3cf2	-0.15550593
159	0xbdbc7e7c	-0.092038125
160	0xbc944281	-0.018098118
161	0xbddf1440	-0.10892534
162	0x3d156af0	0.036478937
163	0xbc2c3179	-0.010509842
164	0xbdc6dce9	-0.09710104
165	0x3d147982	0.03624869
166	0x3d82895a	0.06373854
167	0xbd89caa9	-0.067281075
168	0x3d1c2ea1	0.038130406
169	0xbd957780	-0.072981834
170	0x3d8a4203	0.06750872
171	0x3d42f95d	0.047601093
172	0xbe00225e	-0.1251311
173	0xbd3ff4f1	-0.046864454
174	0x3d8be678	0.06831068
175	0xbcbf127c	-0.023324244
176	0xbdb37ad2	-0.087636605
177	0x3d10ec10	0.035381377
178	0xbd8827dc	-0.066482276
179	0xbe2a1a70	-0.16611648
180	0xbdec3a6d	-0.11534581
181	0xbd91624b	-0.07098826
182	0xbdb46269	-0.08807833
183	0xbd9b65f4	-0.075878054
184	0x3c624ffc	0.013813015
185	0xba56d804	-0.0008195641
186	0xbe09f9a5	-0.13474138
187	0xbe13e963	-0.14444499
188	0xbda3d122	-0.07998873
189	0x3d528851	0.051399533
190	0x3d8c1d6a	0.06841548
191	0x3da0a0c6	0.07843165
192	0x3b2d93c6	0.0026485785
193	0xbd62928a	-0.05531553
194	0xbe02b432	-0.12764052
195	0xbd9a3f4e	-0.07531606
196	0x3dab07c6	0.08351092
197	0xbc47033b	-0.012146766
198	0x3be8d05b	0.007104916
199	0xbd600a86	-0.054697536
200	0xbd523161	-0.051316623
201	0x3d18a24d	0.037264157
202	0xbd5b6501	-0.05356312
203	0x3d6a30ed	0.057175566
204	0xbe20206d	-0.1563737
205	0xbdb03c3f	-0.08605241
206	0x3c6c76cb	0.014432619
207	0xbd9f18bc	-0.077683896
208	0x3ddd0c38	0.10793346
209	0x3d6b5098	0.057449907
210	0xbe279ecd	-0.16369171
211	0xbe168f72	-0.14703158
212	0xbb45e9a6	-0.003019908
213	0xbd445cf1	-0.0479402
214	0xbd466d6e	-0.048444204
215	0xbd0a5f23	-0.033782136
216	0xbdd0e396	-0.101996586
217	0xbbb9c10c	-0.005668765
218	0xbdfcf61a	-0.12351628
219	0xbe171ad5	-0.1475633
220	0xbd14ab22	-0.036296017
221	0xbdbff9cc	-0.09373817
222	0xbdd6d19a	-0.10489197
223	0xbd5c130e	-0.05372911
224	0x3ca4233f	0.020036338
225	0x3d4df0d4	0.0502785
226	0x3b7fe8a8	0.0039048586
227	0x3d1ce0ad	0.038300205
228	0xbde69fec	-0.112609714
229	0x3ba3eb1a	0.0050023915
230	0xbe25d734	-0.16195375
231	0x3ca370a5	0.019951174
232	0xbe0140e3	-0.12622409
233	0xbe060f87	-0.1309186
234	0xbdf27248	-0.11838204
235	0xbe0b63f2	-0.13612345
236	0xbd99f290	-0.07516968
237	0xbddc9704	-0.107709914
238	0x3c26d5bc	0.010182794
239	0xbdb60dff	-0.08889388
240	0x3d381cb1	0.044949237
241	0xbcfcc6e6	-0.03085656
242	0x3d3550ee	0.044266634
243	0xbe2ff365	-0.17182691
244	0xbce7135f	-0.028207479
245	0x3b9d8665	0.004807281
246	0xbdd21e2e	-0.102596626
247	0x3d6e7a7b	0.058222275
248	0xbe123bd2	-0.14280632
249	0x3cb69cbc	0.022291534
250	0x3da3e9e2	0.08003594
251	0x3d3cec2f	0.04612368
252	0xbe05f3a6	-0.13081226
253	0x3d5cadc6	0.05387666
254	0xbd730a9e	-0.059336297
255	0x3d1f2107	0.038849857

fc2.bias f4 [6]
0	0xbce54159	-0.027985262
1	0xbdb484ef	-0.088144176
2	0xbd2e71fd	-0.042589176
3	0xbc8b43d0	-0.017000109
4	0xbdcd8f6f	-0.100371234
5	0x3d0566cc	0.032568738
